results/vision_only/S1/layer8_correlations_testMovie.npy (npy, 324572 bytes, 1 tensors)

array f4 [81111]
00000000: e07c ccbc 5f59 18bd 6d12 f1bc 85d7 e93d
00000010: e4df 1c3c e863 6a3d a6c8 8f3d db89 cf3d
00000020: 7aa4 593c 878f 5bbd 6127 b53c a3fc 7d3c
00000030: 09be b53d 4f47 81bd 74b9 ac3d fc9e ac3c
00000040: ec1d 97bd 20bd 453d d1b5 c13c e05a 1c3e
00000050: de00 fabb ed25 99bc 1bb3 dd3d 48b6 993d
00000060: d3db 063e a573 a0bd 48f2 00bd bb84 17bd
00000070: 7bdd 15bd 1d40 993c 01f9 7f3c 71c9 ffbc
00000080: bbbd 1f3d 48a0 bdbd 1dac 71bd 413f dabd
00000090: c80a 90bd 06cb d43c c4f7 133e e9fa 6dbd
000000a0: c9e5 7c3d f3f4 d23b ce50 913d b31b e83d
000000b0: aa0b 913d 9aeb 923a 8c1d 403d 4294 babb
000000c0: 4648 ee3c 1a3d 8139 e0cb e33c 445f 3abb
000000d0: be61 93bd a409 ad3d 1cdb 9f3d 7b6b c2bc
000000e0: c063 ae3d 3e48 91bd 0ed7 dfbb b7bd 52bd
000000f0: 8eb8 313d 02ba ba3c db98 6fbc ea95 283b
00000100: d363 fabc 3b9f 653d 6ecb 84bc 4168 113e
00000110: aa24 6abd 73b7 46bd 2c77 83bd d404 c53c
00000120: 8232 003d 1491 e33d 6a96 b43d 415e a63c
00000130: 48a0 b73d 7640 c83a 48e8 853d cb00 b93d
00000140: 09ce 92bc 5f4e bcba 78ac 3f3d 828e 063d
00000150: 0f64 343d 472d 0cbd 23d8 963d 3eda fa3d
00000160: 3f80 293d 7148 ba3d 4b17 823d d0b5 06bd
00000170: 3132 2b3d 2f20 cf3d f248 ad3c 7770 c73c
00000180: cf04 af3d bd57 223d 3abc f4bc 352d 57bc
00000190: 75ad ba3d 7f51 81bd b517 493d ebcc bd3c
000001a0: 39f7 fa3c 982b 31bc 2a3a b2bd a38e 40bb
000001b0: 64a6 083d afac 833d 6f0b 893d f537 cebc
000001c0: 0eed f53c 443b 76bd 7693 4c3d 2b1c e33c
000001d0: 2f8b babd 4ecc 903d f3a0 9ebb fa7e ab3a
000001e0: 4e09 903d 1883 ca3d 7dda 2dbd 4695 113e
000001f0: 0655 af3d 24ad 0cbd d797 1d3e c449 78bc
00000200: a089 f6bc 2684 203d 6ce0 c43d 08ed dcbb
00000210: 0a06 83bc e7fe 763d 9c5d aabc ba16 c03b
00000220: 456f 26bd a43a 2b3d 8683 533d 28c4 9b3c
00000230: 51d2 a73c a271 62bd 7c98 cf3d 1d96 51bd
00000240: e5fe d43c 4d5e a8bd 6c3f 4abd 85f1 713e
00000250: bda1 cf3c e747 b8bd d39c e93c d8f6 c8bb
00000260: e544 943c 847e 81bd 1560 87bd e163 0e3d
00000270: e393 173e 3881 5abd 4ddc 343e ea06 9cbd
00000280: 9a31 ec3d a66a a2bd 21c2 463e 97b4 c8bc
00000290: 41fa 513d 5214 1d3e 676a bebd 00c1 e83d
000002a0: f495 683d 7d03 ed3c 460e 4bbc 870b bfbc
000002b0: 80a7 13bd 94a2 1dbe 5804 8cbc 1965 35bd
000002c0: 5240 d3bb c1f3 833d c5f8 e13c 0ac0 f13d
000002d0: b688 223e 3d97 973d a698 93bc 33dd 7d3d
000002e0: c69f e83d 8157 9f3d 0bba 023c ef67 08bd
000002f0: 10bd f03d 9702 e33c a5f1 003d 490d 74bc
00000300: 33c4 e83d fece c93d 01eb e93d 20a1 0c3d
00000310: 7474 c4bd 903a 81bb a21d ab3d 9d91 9e3d
00000320: 486e 243e e516 d2bd 54a6 2abc 6e3f a13d
00000330: 8fc6 873d 05b4 9a3d 0555 f33c 5e90 833d
00000340: 1803 ad3c 2bcc 213e 145a a53d 6bef d3bd
00000350: e646 753d 7b04 313d 0838 a23d fbfb 9d3d
00000360: 1df8 d6bc d893 96bd a82d 7e3d d058 5dbd
00000370: 0797 293d 8810 cb3c 5f74 24bd 32e5 4e3d
00000380: e88e 11bd 89a4 62bc 8bdb 8fbd 6ee0 61bd
00000390: f4e7 2e3c f1db 8f3d 57a5 4ebd 9d9c 203d
000003a0: 4b11 04bd 0e9c a43b 39c5 a73d 751e 383d
000003b0: b084 913c b249 e4bc 5878 a43d baca 853d
000003c0: 5461 3b3d 7eff 1a3d 9f0c 64bd 688e 16bd
000003d0: 4c76 333c dcb1 8a3c 01c6 02bd ea1e 443d
000003e0: 1a76 b53d 3429 9ebc 1343 a33d 205d 263e
000003f0: 29ee f73d 85a7 9c3d 1c65 9ebd cf9e 64bd
-0.024961889 -0.037194606 -0.029427731 0.1141806 0.009574864 0.057224184 0.070206925 0.10133716
0.013283843 -0.053603675 0.022113504 0.015502128 0.08874137 -0.06312429 0.0843381 0.021071903
-0.07378754 0.048276067 0.023646267 0.15269041 -0.007629498 -0.018694842 0.10825177 0.075054705
0.13169794 -0.078345574 -0.031481057 -0.036991816 -0.036588173 0.01870733 0.015623332 -0.031223984
0.0389993 -0.09259087 -0.05900203 -0.10656596 -0.07033306 0.025975715 0.14449984 -0.058100615
0.061742578 0.0064378916 0.070954904 0.11333408 0.07082303 0.0011209131 0.046903178 -0.0056939432
0.029087197 0.00024650322 0.027807176 -0.002843813 -0.07196377 0.084491044 0.07805464 -0.023732891
0.085151196 -0.07093857 -0.0068310564 -0.051450457 0.043388896 0.022793774 -0.014623846 0.0025724121
-0.030565178 0.056060057 -0.016210284 0.14199926 -0.05716387 -0.048514795 -0.064192146 0.024050154
0.031298168 0.11111656 0.08817752 0.020308616 0.08966118 0.0015278 0.06538445 0.09033354
-0.01792051 -0.0014366618 0.04679534 0.03285075 0.044040736 -0.034222867 0.073654436 0.12248658
0.04138207 0.09095848 0.06352099 -0.032888234 0.041795913 0.101135604 0.021152947 0.02434562
0.08545839 0.039634455 -0.02987491 -0.013133337 0.091151156 -0.06314372 0.049094874 0.023169002
0.030635463 -0.010813616 -0.087025 -0.0029381893 0.033361807 0.06429421 0.06691634 -0.025173167
0.030020263 -0.060115114 0.049945317 0.027723392 -0.091085784 0.07070218 -0.004840964 0.0013084107
0.07033025 0.098882854 -0.042444695 0.142171 0.08561139 -0.034344807 0.15389954 -0.015154306
-0.030094922 0.039188527 0.096131176 -0.0067421235 -0.01599409 0.060301688 -0.02079659 0.005862084
-0.04063346 0.04180397 0.051639102 0.019014433 0.020486029 -0.05528415 0.10136506 -0.05116855
0.02600045 -0.082211114 -0.04937689 0.23627289 0.025345678 -0.08998089 0.028517162 -0.0061329417
0.018099258 -0.06322959 -0.06610123 0.03476322 0.14802508 -0.05334589 0.17662163 -0.07618506
0.11532898 -0.07930498 0.19409992 -0.024500174 0.05126405 0.15339783 -0.092976384 0.11364937
0.05678363 0.028932327 -0.01239354 -0.023320926 -0.036048412 -0.1539405 -0.017091915 -0.044285867
-0.0064468766 0.06442977 0.027584443 0.11804207 0.15872464 0.07401893 -0.018017124 0.06197853
0.11358599 0.07780362 0.007978926 -0.033302244 0.11754811 0.027711196 0.03148045 -0.014895746
0.11365547 0.09853934 0.114217766 0.03433335 -0.09592524 -0.003943749 0.083552614 0.07742617
0.16057694 -0.10258273 -0.010415632 0.078734264 0.06629669 0.07553867 0.029703626 0.0642402
0.02111964 0.1580054 0.08073822 -0.103484 0.059882067 0.043217164 0.07920843 0.07714077
-0.026241357 -0.07352418 0.06205526 -0.054039776 0.041403797 0.024788156 -0.040150043 0.050511546
-0.035536677 -0.013833174 -0.070242964 -0.055145673 0.010675419 0.07024372 -0.05045065 0.039211858
-0.032243054 0.005023486 0.08191914 0.04495092 0.017763466 -0.027867172 0.08030766 0.06532808
0.045747116 0.037841313 -0.0556761 -0.036756903 0.010953497 0.016930513 -0.031927112 0.047881044
0.08860417 -0.019306757 0.07971778 0.16246462 0.12105972 0.07649139 -0.07734129 -0.055815514
