results/vision_only/S1/layer4_correlations.npy (npy, 649016 bytes, 1 tensors)

array f8 [81111]
0	0xbf515ef0bd555555	-0.0010602332088941087
1	0xbf9c1b8fb5555555	-0.027448888247211773
2	0xbfa8319310000000	-0.04725322313606739
3	0xbf9bc67406aaaaab	-0.02712422648134331
4	0xbf98d52a01555555	-0.02425065644395848
5	0x3fa44d32b6aaaaab	0.039651474760224424
6	0x3fa7364021c71c72	0.045335773585571185
7	0x3fb162c305555555	0.06791323547561963
8	0xbf89c0ade7333333	-0.012574537866748869
9	0x3f7703eb9999999a	0.005618973076343537
10	0x3f912588d999999a	0.016744745522737504
11	0xbf812afe73333333	-0.008382785692811012
12	0xbfa09d996c000000	-0.032452387269586325
13	0xbfa9ebf40999999a	-0.05062830559909344
14	0xbf84efe4cccccccd	-0.010223186016082764
15	0x3f466037c0000000	0.0006828567711636424
16	0x3f63ee682c71c71c	0.0024330172196237575
17	0x3fa5584f7b8e38e4	0.041689380485978395
18	0x3fa34a4511c71c72	0.037676008625162974
19	0x3f803561b8e38e39	0.00791431756483184
20	0x3f8c91349c71c71c	0.013948832535081439
21	0x3f6c6c83aaaaaaab	0.0034697124113639197
22	0xbf7fb8726aaaaaab	-0.007744261684517066
23	0xbf900de8c8000000	-0.01567805977538228
24	0x3f7340efaf333333	0.00470059992512688
25	0x3f9be1d6d1000000	0.02722869539866224
26	0xbf835fd9c3333333	-0.009460164327174425
27	0xbf6528a8d999999a	-0.002582864556461573
28	0x3f4a3e1048000000	0.0008008555887499824
29	0xbf849c9cae38e38e	-0.010064338747825887
30	0xbfad721e51c71c72	-0.05751127956642045
31	0x3f8c198bcb8e38e4	0.013720600270769663
32	0xbf93f2ec1cbc71c7	-0.01948136258498481
33	0x3f87641428e38e39	0.011421353814916478
34	0x3f8845a2e0000000	0.011851570568978786
35	0x3f9e54ab8aaaaaab	0.029619865740338962
36	0x3f96185d3f555555	0.021577317228851218
37	0xbfa0ebd902e38e39	-0.03304937515511281
38	0x3f85971278e38e39	0.010542053522335159
39	0xbf7e8f091c71c71c	-0.007460628118779924
40	0xbfb60f23938e38e4	-0.08616850235395962
41	0x3f9bda10f1555555	0.027199043969934184
42	0xbf9f7a19a4c71c72	-0.030739212686765112
43	0xbfaf64e2858e38e4	-0.061316565325897604
44	0x3fb0baba2b1c71c7	0.06534923126714097
45	0x3f9a8cb49a38e38e	0.025927373803117208
46	0xbf9d7e45f3c71c72	-0.028802006725325353
47	0x3fa861f548e38e39	0.047622361323899694
48	0xbf96a127328e38e4	-0.02209912534777282
49	0x3fa5c79eb8e38e39	0.04253860480255551
50	0xbf8b4f1afe38e38e	-0.013334475405928161
51	0x3f7a332f4aaaaaab	0.0063964698153237505
52	0x3f80350bf0000000	0.007913678418844938
53	0x3f7bb940438e38e4	0.006768466025176976
54	0xbfa1032885555555	-0.033227220798532166
55	0x3f6990b415555555	0.0031207577946285405
56	0x3fa65f68a5555555	0.04369666116933028
57	0x3f8233d9638e38e4	0.00888795695371098
58	0x3fa6f3086c71c71c	0.04482294391426775
59	0xbf95ff68438e38e4	-0.021482113955749407
60	0x3f9204b14f1c71c7	0.01759602589946654
61	0xbfa7460a81c71c72	-0.045456245748533144
62	0x3f8a7eb50e38e38e	0.012936987396743562
63	0x3f89a61f79c71c72	0.012523885635245178
64	0x3f8a62835caaaaab	0.012883211389028778
65	0xbf75316b6b8e38e4	-0.005174083337705169
66	0xbf5192c6e38e38e4	-0.0010725919985108906
67	0x3f9adef1aaaaaaab	0.02624108890692393
68	0x3f645df04c71c71c	0.0024861996967552435
69	0x3f7b69a9938e38e4	0.006692564399499033
70	0x3fa1c80945c71c72	0.03472928025035395
71	0x3f677b0115555555	0.0028662701758245626
72	0x3f85d6818f1c71c7	0.010663044147400392
73	0x3f90fe700471c71c	0.016595602294223175
74	0x3f8715e9b5555555	0.011272264334062735
75	0x3fb09833131c71c7	0.06482238022403584
76	0x3f9585ba7e000000	0.021017946186475456
77	0x3f74c82cac000000	0.005073713778983802
78	0x3f7444a3ee000000	0.004948273039190099
79	0xbf83e46f8a000000	-0.009713050269056112
80	0xbf9af318f0400000	-0.026317968047806062
81	0x3fb63743fa000000	0.08678078511729836
82	0x3fa75e6e04000000	0.045642316807061434
83	0xbfa4242ff9400000	-0.03933858792879619
84	0x3fa1053063000000	0.03324271400924772
85	0x3fac630c4f400000	0.05544317691237666
86	0x3f962f54013b13b1	0.021664917540664855
87	0x3fa030084a762762	0.03161645802454306
88	0x3f7f5aa93613b13b	0.007654820424459803
89	0xbf90c53fda627627	-0.016377446846140977
90	0x3f95cd4537627627	0.02129085684338441
91	0x3f96b42dd89d89d9	0.02217170366874108
92	0x3f8593f9709d89d9	0.010536144971131133
93	0x3f9c154108762762	0.027424827710582085
94	0xbfa016c42d962762	-0.03142369324184703
95	0x3f96d2a170ec4ec5	0.02228786708572163
96	0xbf94df85b8000000	-0.020383920054882765
97	0x3f900d72b0000000	0.015676300041377544
98	0xbfa281b4489d89d9	-0.03614581476610441
99	0xbf974b26b4000000	-0.022747616516426206
100	0x3f8cdb6dc0000000	0.01409040205180645
101	0x3f7767c28ec4ec4f	0.005714187613473489
102	0xbf3049b6c4ec4ec5	-0.00024853431834624364
103	0x3f6e855f86276276	0.003725706644427891
104	0x3f7c57af6f627627	0.006919560712189055
105	0x3f8f0c39ce93b13b	0.01516003762886752
106	0x3fa2c2f3b0000000	0.03664361499249935
107	0x3f93f9f9209d89d9	0.019508259406743143
108	0xbfa1c2e8f713b13b	-0.03469017044139596
109	0x3f9a478266276276	0.025663411602951013
110	0x3f99e2c4484ec4ec	0.02527910891848688
111	0xbfa9e8941fb13b14	-0.05060255896443358
112	0x3fa9079a84ec4ec5	0.048886135793649234
113	0xbf618ff3313b13b1	-0.0021438360070953
114	0xbf7f0c47313b13b1	-0.007580068678810046
115	0x3faadde15c4ec4ec	0.052474062459973186
116	0x3f903adb3089d89e	0.015849518621018015
117	0x3f9fd6652589d89e	0.03109128991715037
118	0x3f8f08be01d89d8a	0.015153393203106064
119	0xbf5cf0f33b13b13b	-0.0017664313602906007
120	0x3f91d476f44ec4ec	0.017412050877912685
121	0x3f93d94700000000	0.019383534789085388
122	0xbf79956c4ec4ec4f	-0.006246016575739934
123	0xbf91b7cb8924ec4f	-0.017302685018176608
124	0x3f9ab1b553b13b14	0.02606852839772518
125	0x3fb39b000c000000	0.07658386509865522
126	0x3fa00ded86c4ec4f	0.03135626096851551
127	0x3f9b974b49d89d8a	0.026944328672610797
128	0xbf839ac39bb13b14	-0.009572532833912052
129	0x3f82e84bc93b13b1	0.00923213203294346
130	0x3fab4051eb627627	0.053225097640489154
131	0xbf9a73bab3b13b14	-0.025832097260997847
132	0x3f871f60efd89d8a	0.01129031879379629
133	0x3f8ab9548589d89e	0.013048801732321199
134	0xbf6e0e11d89d89d9	-0.003668818336266738
135	0x3f8f089be6c4ec4f	0.01515313909532359
136	0x3f92569eb213b13b	0.017908553713753533
137	0x3f994f3cf4ec4ec5	0.024716331910055418
138	0x3f974dba009d89d9	0.02275744084125528
139	0x3f80bba6bd89d89e	0.008170416507010277
140	0x3f9adadfac9d89d9	0.026225562010390256
141	0x3f9618b4e0000000	0.021578622981905937
142	0x3fa5d1bd8dd89d8a	0.042615817609028175
143	0x3f6dec51589d89d9	0.003652724150854808
144	0xbf769e16bb13b13b	-0.005521858970706279
145	0x3f9a2e1affb13b14	0.025566503387660935
146	0x3f72bffb4ec4ec4f	0.004577619238541677
147	0x3f903f599589d89e	0.015866660835364692
148	0xbf80c7db38b13b14	-0.008193695705043726
149	0x3f8af82557000000	0.013168613164452836
150	0xbf6b31fe5d89d89e	-0.0033197372507017394
151	0x3f99a4f3f4000000	0.025043308036401868
152	0x3f8f619d44ec4ec5	0.015322903314462075
153	0x3fa19f53c7627627	0.03441869553465109
154	0xbf888e1cd4ec4ec5	-0.01198980831899322
155	0x3f782cd2013b13b1	0.005902118998794601
156	0xbf8586606313b13b	-0.010510209106052151
157	0xbf7c7c11b3b13b14	-0.006954259060036678
158	0x3f6e15e3b13b13b1	0.003672547065294706
159	0x3f72fbdedec4ec4f	0.004634733759583189
160	0x3fa2b0fc3c762762	0.036506540661391154
161	0xbf7525149b13b13b	-0.005162315837179239
162	0x3f96b3efc84ec4ec	0.022170778847514436
163	0x3fac81d7f3b13b14	0.05567812776336303
164	0xbfa8987816276276	-0.04803824682648365
165	0xbf8d978adb13b13b	-0.014449200449654689
166	0xbfa6b8b520000000	-0.04437795653939247
167	0x3f758a001d89d89e	0.005258560610505251
168	0x3f7e7c65a2762762	0.007442852983681055
169	0x3f5956a8e2762762	0.0015465401901075472
170	0x3f93a47327b13b14	0.01918201379549618
171	0x3fa3b2c2d0000000	0.03847321309149265
172	0x3f81348d82762762	0.008401017707700912
173	0xbf97cb07cdd89d8a	-0.023235437334873356
174	0x3f808173049d89d9	0.00805940492472683
175	0x3f5934dd89d89d8a	0.0015384829961336576
176	0xbf2db15bd89d89d9	-0.00022653814476843065
177	0x3f88a6d109d89d8a	0.012036927330952425
178	0x3fa735b02fb13b14	0.045331483671011835
179	0xbf5b3fc6d89d89d9	-0.001663154779145351
180	0xbf97ed00d989d89e	-0.02336503341435813
181	0xbf7c298a0ec4ec4f	-0.006875552451954438
182	0xbf99465b42c4ec4f	-0.024682451200743135
183	0x3fa482c030000000	0.040060048922896385
184	0x3f9862c03c4ec4ec	0.023814204865350172
185	0x3f5e245a189d89d9	0.0018397216649296193
186	0xbf7f3ffd5e276276	-0.007629384725497892
187	0xbf80ef1a11d89d8a	-0.008268550557729144
188	0x3fa5098a7f13b13b	0.04108841706497165
189	0x3f8dde0169d89d8a	0.014583598177593488
190	0xbf90faa7f313b13b	-0.016581176959264737
191	0xbf84092c6ec4ec4f	-0.00978312218705049
192	0x3f8057827dd89d8a	0.007979411569137413
193	0xbf8b9d45a0ec4ec5	-0.013483566258890698
194	0xbfa1500e1cc4ec4f	-0.03381389714419269
195	0xbf672e34b4ec4ec5	-0.002829649870713743
196	0x3f807e1230000000	0.008052961435168982
197	0xbfa9bb81284ec4ec	-0.05025867096936473
198	0x3f828db1389d89d9	0.009059319057716774
199	0xbf752ba11b13b13b	-0.00516856128636461
200	0xbf8bfa558c4ec4ec	-0.013661068291045152
201	0x3f97ac53358ec4ec	0.02311830534353458
202	0x3f606be980000000	0.00200458150357008
203	0x3fa1ab0172276276	0.034507794556422874
204	0x3f92437243b13b14	0.017835412389383867
205	0x3f959456613b13b1	0.021073674854750816
206	0x3f95904c56c4ec4f	0.021058266445134696
207	0x3f8035d809d89d8a	0.00791519908950879
208	0x3fa3fb30db762762	0.039025809087503985
209	0x3f7d8bdc63b13b14	0.007213459869560141
210	0x3fa43fceecec4ec5	0.039549318715356864
211	0xbf8055a12d89d89e	-0.007975825502608832
212	0xbf73bc6ae9ad89d9	-0.00481836092771678
213	0x3f67208e21d89d8a	0.0028231407184368717
214	0xbf6f054422762762	-0.0037866907839018563
215	0x3f63286ee2762762	0.0023386159625190953
216	0x3f87b339e09d89d9	0.011572315375535535
217	0xbf81f49e2e276276	-0.008767352851394277
218	0xbf831060bfb13b14	-0.009308582162842728
219	0xbf931834fbb13b14	-0.018647029745177582
220	0xbf959b87b6c4ec4f	-0.021101112871502455
221	0xbf723f64c7627627	-0.0044549881623914605
222	0x3f8e1c2387627627	0.014702107972250534
223	0xbf925535e84ec4ec	-0.01790317755120878
224	0xbfa836853cec4ec5	-0.04729095810594467
225	0xbf8a695e613b13b1	-0.012896287290809246
226	0x3f423f7da9d89d8a	0.0005568851081009668
227	0x3f9186196d89d89e	0.017113110838601224
228	0x3f187630ec4ec4ec	9.33139190937464e-05
229	0x3f994d7d429d89d9	0.024709660712128077
230	0x3f81578bd6276276	0.00846776244445489
231	0x3f8b467ee93b13b1	0.013318053715360852
232	0xbf9a5651b09d89d9	-0.025719906239268873
233	0xbf6515801ec4ec4f	-0.002573728785276986
234	0x3fa91d0f3a762762	0.04904983128206088
235	0x3f898a573ec4ec4f	0.012470895388665108
236	0x3f9a7a161e276276	0.025856347647137366
237	0x3fab5c2b48c9d89e	0.05343756927042985
238	0x3f8e29c4a7627627	0.014728103979275776
239	0x3fa5573154c4ec4f	0.04168085250645303
240	0xbf78f3d0e5d89d8a	-0.006091896063970545
241	0x3f7b8cf19ec4ec4f	0.0067262113846551915
242	0x3f70266d29d89d8a	0.003942896289607653
243	0x3f8a6751a3b13b14	0.012892377670281209
244	0xbfa1e2ea86c4ec4f	-0.034934357596704595
245	0xbf7ce144f89d89d9	-0.007050771158761703
246	0xbf8a5b69144ec4ec	-0.012869664127580248
247	0xbfa09e327b13b13b	-0.032456948780096494
248	0xbf716eeb313b13b1	-0.004256170959426806
249	0xbf4c986404ec4ec5	-0.0008726585745954743
250	0xbf47999127627627	-0.0007202109107031272
251	0x3f8b4e4cb6276276	0.013332938488859396
252	0xbf8270f8b13b13b1	-0.009004538448957296
253	0x3f6d50828ec4ec4f	0.003578429217808522
254	0xbf9f04acd6276276	-0.0302912717541823
255	0x3f75f4cbd4ec4ec5	0.005360408990572278
