results/vision_only/S1/layer8_correlations.npy (npy, 324572 bytes, 1 tensors)

array f4 [81111]
0	0xbcfb447d	-0.030672306
1	0xbd69bda4	-0.05706562
2	0xbd39d01f	-0.045364495
3	0x3de59f53	0.11212029
4	0xbc26b3df	-0.010174721
5	0x3d5370f6	0.0516214
6	0x3d549f33	0.051909637
7	0x3d8d3538	0.06894916
8	0xbc5b5be2	-0.013388606
9	0xbd825a4b	-0.06364878
10	0x3c4f8f7d	0.012668488
11	0xbbdf3629	-0.0068118763
12	0x3d2c68f1	0.042092267
13	0xbddf8b3c	-0.10915229
14	0x3da41fcf	0.080138795
15	0x3ac92c7c	0.001534834
16	0xbd73fceb	-0.059567373
17	0x3ccedc66	0.025251579
18	0x3c7d973a	0.01547795
19	0x3dadc97d	0.084856965
20	0xbc9c0417	-0.019044919
21	0xbcd08bbe	-0.02545726
22	0x3d92a90f	0.071611516
23	0x3cd277ba	0.025691856
24	0x3d78d9c3	0.06075455
25	0xbdc0b140	-0.09408808
26	0xbd5a0cb3	-0.053234767
27	0xbd310ed3	-0.043227028
28	0xbd44f518	-0.048085302
29	0xb9fd4683	-0.00048308456
30	0xbc804cdb	-0.015661648
31	0xbd850783	-0.06495573
32	0x3cb839fd	0.022488588
33	0xbdd56444	-0.10419515
34	0xbe0b643d	-0.13612457
35	0xbde72d96	-0.11287992
36	0xbdabb5f3	-0.083843134
37	0x3c3eb375	0.011639466
38	0x3dc44825	0.09584073
39	0xbd7d1c60	-0.06179464
40	0x3d1c2f3c	0.038130984
41	0xbb88b03f	-0.004171401
42	0x3d0feff1	0.035140935
43	0x3dbdedf3	0.09273901
44	0x3d6d868d	0.057989646
45	0xbbd6efe8	-0.006559361
46	0x3d0e905f	0.03480565
47	0xbd261fc2	-0.04055763
48	0xbb3c3ee8	-0.0028724018
49	0xbc60cabb	-0.01372021
50	0x3cbb782f	0.022884456
51	0xbc73b6e0	-0.014875144
52	0xbda673f1	-0.08127583
53	0x3d98ecbe	0.0746703
54	0x3d93e4c1	0.07221366
55	0xbcf8c924	-0.030369349
56	0x3d990bb6	0.07472937
57	0xbdb0d7d4	-0.08634916
58	0xbc883f13	-0.016631639
59	0xbd6ee9ea	-0.058328547
60	0x3cf038e5	0.029324004
61	0xbd73503d	-0.059402693
62	0xbd3b636b	-0.04574911
63	0xbc3c1a60	-0.011480898
64	0xbd4522c6	-0.048128866
65	0x3d525889	0.051353965
66	0xbcb70d93	-0.02234534
67	0x3df927bd	0.121657826
68	0xbd934a5f	-0.071919195
69	0xbd694863	-0.0569538
70	0xbd5706d8	-0.05249676
71	0x3caeb031	0.021324249
72	0x3cc4ba96	0.024014752
73	0x3dc2067e	0.094738945
74	0x3d4f5ffa	0.05062864
75	0xbbc5cf61	-0.0060366844
76	0x3dacc819	0.08436603
77	0xbc90d972	-0.017681811
78	0x3cf985b2	0.030459259
79	0x3da7dbed	0.081962444
80	0xbcc92796	-0.024555009
81	0x39a3888b	0.00031191515
82	0x3d3aa587	0.045568015
83	0x3ccd24d2	0.025041971
84	0x3d01a315	0.031649668
85	0xbd1354e2	-0.035969622
86	0x3d7b605e	0.0613712
87	0x3dcc84da	0.09986277
88	0x3ac74e32	0.0015205799
89	0x3db303d4	0.087409645
90	0x3d662b25	0.05619349
91	0xbd1f477e	-0.03888654
92	0x3cd3aa7c	0.02583813
93	0x3dc7ba73	0.09752359
94	0x3c7d8df1	0.015475736
95	0x3ccf92fc	0.025338642
96	0x3d50dfb6	0.050994597
97	0x3d0f7697	0.035025205
98	0xbd276d76	-0.040875874
99	0xbcb7c0ba	-0.022430766
100	0x3dad5354	0.08463159
101	0xbd8f2341	-0.06989146
102	0x3cfc5137	0.030800445
103	0x3c75079b	0.014955427
104	0x3cca6a67	0.02470894
105	0xbcb2ec8c	-0.02184131
106	0xbdd8c17b	-0.105837785
107	0xbc6b5cfc	-0.014365431
108	0x3cc3b603	0.0238905
109	0x3d1c63b9	0.03818104
110	0x3ca4186c	0.020031177
111	0xbd1b92de	-0.03798186
112	0xbcce1a65	-0.02515907
113	0xbda1424d	-0.07873974
114	0x3c570a3c	0.013124999
115	0x3a72a007	0.00092554133
116	0xbde84a27	-0.113422684
117	0x3d7e1297	0.062029447
118	0xbc49fd3e	-0.012328444
119	0xbb92a188	-0.0044748224
120	0x3d887821	0.06663538
121	0x3db6c979	0.089251466
122	0xbd707018	-0.05870065
123	0x3dbbbfb6	0.09167425
124	0x3d654bd2	0.05598051
125	0xbd627a0c	-0.055292174
126	0x3e0b35e2	0.13594773
127	0xbccdd72b	-0.025127014
128	0xbd2282ff	-0.03967571
129	0x3cd10512	0.025515113
130	0x3d98295d	0.074297644
131	0xbcb1ab25	-0.021688053
132	0xbd2edf06	-0.04269316
133	0x3d3c1402	0.04591752
134	0xbd2b48f4	-0.04181762
135	0xbc20358a	-0.00977839
136	0xbd7e7bf0	-0.062129915
137	0x3cc33765	0.023830125
138	0x3d01b4f0	0.031666696
139	0x3c525d7e	0.012839673
140	0x3bfc4f0c	0.007699853
141	0xbd7d2021	-0.06179822
142	0x3d922c3e	0.07137345
143	0xbd62d7af	-0.055381473
144	0x3c080e8f	0.008304252
145	0xbe06b390	-0.13154435
146	0xbd739bfe	-0.059474938
147	0x3e3c6ab7	0.18400083
148	0x3c21c52c	0.00987367
149	0xbdcccac5	-0.09999613
150	0xba9630e2	-0.001145866
151	0xbd011318	-0.03151235
152	0x3bb92c05	0.0056509995
153	0xbdb0d601	-0.08634568
154	0xbd857396	-0.06516187
155	0x3b9c8fef	0.0047779004
156	0x3e0263df	0.1273341
157	0xbdf0b56b	-0.11753353
158	0x3de9f0e5	0.114229
159	0xbda935f6	-0.08262245
160	0x3dd253c3	0.102698825
161	0xbdf547b5	-0.11976568
162	0x3e3f2bd5	0.18669064
163	0xbd9cd0ea	-0.07657035
164	0x3d2bf604	0.041982666
165	0x3de8762f	0.11350667
166	0xbdf5237c	-0.11969659
167	0x3dc11954	0.09428659
168	0xbc80e810	-0.015735656
169	0x3b931366	0.0044883965
170	0xbd063a93	-0.032770704
171	0xbd26706a	-0.04063455
172	0xbd2d1ae0	-0.042261958
173	0xbe28b3b1	-0.16474797
174	0xbd229d82	-0.039700992
175	0xbd62c7a5	-0.055366177
176	0xbc74c559	-0.0149396295
177	0x3d60fec4	0.054930463
178	0xbb920f39	-0.004457381
179	0x3dbb6352	0.09149803
180	0x3e14a5d4	0.14516383
181	0x3d84b8e1	0.06480575
182	0xbce13ff1	-0.02749631
183	0x3cfdda41	0.03098786
184	0x3de11c47	0.109917216
185	0x3d8b63c5	0.06806139
186	0xbc26e887	-0.010187275
187	0xbd2f3fff	-0.04278564
188	0x3dd63f58	0.104613006
189	0x3c76c84a	0.015062401
190	0x3c9e7a87	0.019345535
191	0xbcd320a9	-0.02577241
192	0xbcf5fbd6	-0.030027311
193	0x3d3d17b3	0.04616518
194	0x3dc1adc0	0.09456968
195	0x3cabb848	0.020961896
196	0xbdccaa15	-0.09993378
197	0xbcc357b0	-0.023845524
198	0x3d6beb37	0.057597365
199	0x3d896981	0.067095764
200	0x3e18bbee	0.1491544
201	0xbddbedba	-0.10738702
202	0xbcff7dc9	-0.031187909
203	0x3d91789a	0.07103081
204	0x3d3db51c	0.046315297
205	0x3d78536c	0.060626432
206	0x3c93f220	0.01805979
207	0x3d3789d5	0.04480918
208	0x3c643a8b	0.013929973
209	0x3e06a840	0.1315012
210	0x3d6616d9	0.056174133
211	0xbe021bae	-0.12705871
212	0x3d5064dc	0.050877437
213	0x3d07ce3f	0.033155676
214	0x3d73b3db	0.059497695
215	0x3d96a1dc	0.07355091
216	0xbc80c08a	-0.01571681
217	0xbda9a622	-0.082836404
218	0x3d4f639b	0.0506321
219	0xbd8a4f37	-0.0675339
220	0x3b0e4389	0.0021707735
221	0x3c591f5b	0.013252105
222	0xbd5f8ac8	-0.05457571
223	0x3d2f8f2f	0.04286116
224	0xbd20da0d	-0.03927045
225	0xbc7abdb6	-0.01530402
226	0xbdba8d51	-0.09108985
227	0xbd99f522	-0.075174585
228	0xbc4c8fc5	-0.012485449
229	0x3d298648	0.041387826
230	0xbd883e73	-0.06652536
231	0x3cace233	0.021103954
232	0xbd0b5622	-0.03401769
233	0xbb93fab4	-0.00451597
234	0x3d7282f9	0.059206937
235	0x3cf1ce5d	0.029517347
236	0xbb6292cc	-0.003457236
237	0xbd3c77ab	-0.04601256
238	0x3d8a2113	0.0674459
239	0x3d806691	0.06269563
240	0x3caa1b30	0.020764917
241	0x3cff3823	0.031154698
242	0xbd819ca2	-0.063287035
243	0xbd427928	-0.047478825
244	0xbb87d980	-0.004145801
245	0x39e621da	0.0004389424
246	0xbd36371c	-0.04448615
247	0x3cdc5bfc	0.02689933
248	0x3da6acc2	0.0813842
249	0xbcf96404	-0.030443199
250	0x3d5b895c	0.053597793
251	0x3e1e5b7d	0.15464588
252	0x3dec76e2	0.115461126
253	0x3d8eb4d9	0.06968088
254	0xbda43c71	-0.08019341
255	0xbdadc9cf	-0.084857576
