results/story_to_movie/S1/layer8_correlations.npy (npy, 324572 bytes, 1 tensors)

array f4 [81111]
000000 cb 97 0e 3d ec 02 65 3d 46 1a e0 3c 1f 65 11 3c
       0.03481273 0.05591099 0.027356278 0.008874207
000010 9f c9 11 bc 31 24 b7 3a 4e fd 33 3c 40 42 20 3c
       -0.008898168 0.0013972578 0.0109856855 0.00978142
000020 af 1d 02 bb 06 04 1a 3d 21 0c 8b 3d 41 97 df 3c
       -0.0019854119 0.037601493 0.06789423 0.027293803
000030 6c fa 6b ba ef f0 c3 3c 94 ba fc 3c 62 ad 19 3d
       -0.00090018543 0.023918597 0.030850686 0.037518866
000040 2f 52 b6 3c 9c 6e d3 bc 0f f1 f4 bc 19 aa 0b bc
       0.022255985 -0.025809579 -0.029900102 -0.008524441
000050 4b 5a c5 bc 60 81 ba bb 9c bc 5a 3b ba 23 c9 3c
       -0.024090907 -0.0056916922 0.003337658 0.024553169
000060 6e 8f 71 3c 91 be 31 3b b7 ec dc 3b 56 28 43 3c
       0.014743669 0.0027121643 0.006742086 0.011911472
000070 40 f1 72 bc 27 e0 74 bc b5 66 48 3c d1 10 b4 3c
       -0.014828026 -0.01494602 0.0122315185 0.021980675
000080 59 d3 cc 3b 5b 67 54 bc b6 f4 97 ba 44 88 86 bb
       0.0062507805 -0.012964095 -0.0011593315 -0.0041055996
000090 b7 b1 3a 3c 86 71 cc 3c b0 65 0f 3b 2e 09 8d bc
       0.01139491 0.024956476 0.0021880679 -0.017216291
0000a0 e6 04 99 3b d1 88 be 3c 5e 8b 26 3c 1e 87 c3 bc
       0.0046697734 0.023258599 0.010165064 -0.02386814
0000b0 51 59 0b 3d f1 bf 7c 3c d4 ef 1b 3c b7 33 02 bc
       0.034020726 0.015426622 0.009517629 -0.0079469
0000c0 d2 59 a1 bc 4f 28 b8 3c 32 6f 52 3c 9b ae 07 bc
       -0.01969615 0.022480158 0.012843894 -0.008281375
0000d0 30 d7 ad bc d4 9c 85 bc 71 4d 3c 3c 12 65 91 3c
       -0.021220773 -0.016310133 0.011493073 0.01774839
0000e0 67 f6 e8 ba b5 39 c3 3c a9 9c bd 3c 2e cf e3 bc
       -0.0017773629 0.023831228 0.02314599 -0.027808752
0000f0 9e 6a 74 b7 05 42 61 3c 59 12 ac bc f0 4a 7f 3c
       -1.4568357e-05 0.01374865 -0.021004843 0.015581831
000100 4d 5e 82 bb 3b 50 33 ba 70 f6 85 bb 10 d5 8e bb
       -0.0039785267 -0.00068402634 -0.0040882155 -0.004358895
000110 20 7b fa 3b 9b 38 4a bc d1 b7 4d 3c 9f 72 63 3c
       0.007644072 -0.012342597 0.012556032 0.013882308
000120 8f bb 00 3b e1 75 e5 3b 22 04 8d bb 1c ba a5 3c
       0.0019643044 0.0070025777 -0.004303471 0.020230345
000130 87 b8 32 3c 9a 57 29 3c 11 b1 5c bc 44 e6 b0 bb
       0.010908253 0.010335827 -0.01346995 -0.0053985436
000140 e1 7f 18 bc 6b db 46 bc a9 5c df bc 05 6d a6 bb
       -0.009307832 -0.012137274 -0.027265863 -0.005078914
000150 37 d3 75 3c f4 5d 75 3c d1 07 8b 3b cc 06 33 bc
       0.015003971 0.014976013 0.004242875 -0.0109269135
000160 54 29 d2 bc 87 4e 01 bc 85 6b a4 bb 3e e0 3d 3a
       -0.025654472 -0.0078922575 -0.0050177 0.00072431925
000170 9a 52 b4 3c 9b 75 ea bc 99 41 0b bc 40 3a 2e bc
       0.022012044 -0.028620532 -0.008499526 -0.010634005
000180 dc a3 cc 3b f5 97 a0 3c f2 72 1b 3b 30 40 4d 3c
       0.0062451195 0.019603709 0.0023719636 0.0125275105
000190 07 c3 a8 bc 1b 88 0c bc 6e fb 99 ba 9c cb 84 bb
       -0.020600809 -0.008577372 -0.0011747906 -0.0040525924
0001a0 24 75 4a bc 59 41 ca ba 62 9f fc b8 1a 8d 97 3a
       -0.01235703 -0.0015430852 -0.00012045984 0.0011562437
0001b0 c0 5c 44 3d 64 11 1c 3c 34 e2 3d bb 0b 7a 0c 3c
       0.047940016 0.009525631 -0.002897394 0.008574019
0001c0 09 b5 cc 3c 5f 0a 71 3c 85 5e 08 3a bb b4 47 3b
       0.024988668 0.014711945 0.0005202073 0.0030472714
0001d0 fe 37 2a 3c b4 b0 7b 3c 69 05 c3 bb e4 61 df 3b
       0.010389326 0.0153619535 -0.0059515727 0.0068170894
0001e0 94 c7 ab bc 97 ab 89 bc 96 a7 11 bb 95 a1 53 bc
       -0.02096919 -0.016805453 -0.0022225133 -0.012916942
0001f0 82 60 98 bb f2 08 1e 3c a5 6b a4 bc 2c af 25 3d
       -0.0046501765 0.009645687 -0.02007086 0.04045026
000200 5b 88 0a 3c 54 4e 05 3d b0 3f 2b 3d 12 32 6e bc
       0.008455361 0.032545403 0.041808784 -0.014538305
000210 8a 90 34 bc fe c8 30 3c da 1e 97 3c b1 a6 df 3b
       -0.011020789 0.010790108 0.018447328 0.006825291
000220 b6 56 af ba ca 10 6e bc 76 e1 c7 3b 0a 9f 43 3c
       -0.0013377282 -0.01453037 0.006099875 0.011939773
000230 41 9f 08 bc cc 7d 58 3c 59 cd 9c bc 92 af e5 bc
       -0.00833875 0.013213586 -0.019140886 -0.02803782
000240 09 4b de bc b0 ce cc bb 31 dc 8a 3c c4 a3 a6 bb
       -0.027135389 -0.006250225 0.016950699 -0.0050854404
000250 a4 ba c7 3c d7 13 1c 3d 8c 08 38 3c 8f d5 0c 3a
       0.02438099 0.03810486 0.0112325065 0.0005372399
000260 2e f2 9c bc db eb 2c bc 25 56 df 3c 14 b1 49 bc
       -0.019158449 -0.010554279 0.027262757 -0.012310285
000270 28 82 9a 3c 39 40 25 bb 40 51 1b bb 81 db 4c bb
       0.018860891 -0.0025215282 -0.0023699552 -0.0031258764
000280 07 64 5f 3b 49 ba cb 3b 2f 03 05 3d c4 69 27 bc
       0.003408672 0.0062172753 0.03247374 -0.010218088
000290 8c e3 f5 bc e7 88 9e b9 ec fc b3 bc f6 2d ef 3b
       -0.03001573 -0.0003023811 -0.021971188 0.00729918
0002a0 36 92 a1 3b 25 53 9e bc 6f c5 88 bc 1b 59 b5 bc
       0.00493076 -0.019326756 -0.016695706 -0.022137215
0002b0 7d 26 86 bc f1 fe 30 bc 85 c1 69 bc 16 6e cc 3c
       -0.016375775 -0.01080297 -0.01426733 0.024954837
0002c0 54 d8 27 bd 8c 6e 37 3c 9b 8e 6f bc cb ff dd 3b
       -0.04097779 0.01119579 -0.014621402 0.0067748777
0002d0 b1 94 19 bc 95 a3 83 bb 14 f6 11 39 0f 07 12 bc
       -0.00937383 -0.004017303 0.00013919949 -0.008912816
0002e0 4f 0e 12 3d 86 e5 a5 3c 3f 1e 95 3c e2 ea b5 ba
       0.035658177 0.020251047 0.018202899 -0.0013879205
0002f0 31 50 f9 bb ba 1f 89 bc ec 7b d2 bc 5f a7 8a bc
       -0.0076084365 -0.016738761 -0.025693856 -0.016925512
000300 bf b1 2c bc 82 0e e0 ba 75 df 20 bd df a2 f3 bc
       -0.010540425 -0.0017094167 -0.039275605 -0.029740749
000310 de 0d c3 bc 27 8c 19 bb 1c d5 f7 bb ca b9 9a 39
       -0.023810323 -0.0023429485 -0.0075632464 0.00029511593
000320 d9 2c 83 ba 54 0b 4a bc ef 57 a8 ba 51 c3 04 3c
       -0.0010007872 -0.012331802 -0.0012843589 0.008103208
000330 45 6a 14 3d 8f 49 08 3c bb 0a ae bc 19 1d d7 3b
       0.03623416 0.008318319 -0.021245351 0.006564748
000340 ee cc ef 3c 7e 7a d8 3c 54 64 ae 3c 67 36 b0 3a
       0.029272523 0.026425596 0.021288075 0.0013443948
000350 f2 a9 97 bb 2c 48 55 bc 64 72 b0 3c 59 f7 e5 b9
       -0.0046284134 -0.013017695 0.02153892 -0.00043862572
000360 3b a1 a5 bc 39 b4 90 3c e2 06 09 3a 8f 9c ba ba
       -0.020218482 0.017664062 0.0005227161 -0.0014237332
000370 8a 64 28 3b 4a 03 84 bc 9e 50 41 3b 95 6b 0c 3c
       0.0025694692 -0.01611485 0.0029497514 0.008570571
000380 8c 92 c4 3b 57 e1 99 3c fe 82 1a 3c cb b1 b3 3b
       0.005998915 0.018784208 0.009430645 0.005483841
000390 a6 1d 88 3b fa 6f eb 3b d7 7d 6c 3c 69 21 bd bc
       0.004153925 0.0071849795 0.014434299 -0.02308722
0003a0 a4 ea 3d bc ac 73 ec bb c9 06 73 3b a0 13 4f bc
       -0.011591587 -0.0072159376 0.0037082902 -0.012638956
0003b0 36 03 1b 3c 90 26 19 3c 6e 23 9b 3b da b4 4a 3b
       0.009461215 0.009347573 0.004734448 0.003093055
0003c0 ef 16 85 bb f5 32 46 3a 67 a3 84 3c a9 36 8d bb
       -0.004061572 0.0007560694 0.016191198 -0.0043094945
0003d0 16 d6 79 bc c1 96 8c 3c 92 ec af bb 85 17 69 3c
       -0.015248796 0.017161729 -0.0053687776 0.014226799
0003e0 a1 b8 0b bc e9 77 e5 bb 00 9a c1 bc 97 9b 81 bc
       -0.008527906 -0.00700282 -0.023633003 -0.015821261
0003f0 99 73 8f bc e3 29 0d 3c c9 98 a0 3c 9c 34 a5 3c
       -0.017511176 0.008615944 0.019604104 0.020166688
