results/story_to_movie/S1/layer9_correlations.npy (npy, 324572 bytes, 1 tensors)

array f4 [81111]
0	0x3c40e355	0.01177295
1	0x3d3d4cf6	0.046215974
2	0x3c6640b9	0.014053517
3	0x3c70967b	0.014684315
4	0x3d395862	0.045250304
5	0x3cac0afa	0.021001328
6	0xbc8575bb	-0.01629149
7	0xbccc9491	-0.024973186
8	0x3c9df37e	0.019281145
9	0x3ba195eb	0.0049312017
10	0x3cdcb1a0	0.026940167
11	0x3cee73bf	0.029107926
12	0x3c80a164	0.015701957
13	0x3b8d63e4	0.0043148864
14	0x3ab72a5b	0.0013974415
15	0x3b9933ac	0.004675349
16	0xbc44adcf	-0.01200433
17	0xbd39cca9	-0.045361195
18	0xb9adfc27	-0.00033185
19	0x3cacb906	0.02108432
20	0x3bdf6dc2	0.006818504
21	0x3ca9cb60	0.02072686
22	0x3a918dfb	0.0011104936
23	0x3c7030b1	0.014660046
24	0x3d01f77d	0.031730164
25	0x3ceaad5f	0.028647123
26	0x3c0d7d3a	0.008635813
27	0x3cdf0856	0.027225655
28	0xbb81185c	-0.0039396714
29	0x3c83d341	0.016091945
30	0x3c52e966	0.012873029
31	0xbc11d713	-0.008901375
32	0xbcd38466	-0.025819968
33	0x3c6b145c	0.014348116
34	0xbca9e80f	-0.020740537
35	0x3be1b4d0	0.0068880096
36	0x3cb8cfe6	0.022560071
37	0x3cef2517	0.02919249
38	0xbaa1ccbe	-0.0012344343
39	0xbc325126	-0.010883605
40	0xbc3afaac	-0.011412304
41	0x3c8ffc4e	0.017576363
42	0x3c3c7235	0.011501838
43	0x3c2adc1f	0.0104284575
44	0x3ca6c08e	0.02035549
45	0xbc00afe1	-0.007854433
46	0xbc74caf7	-0.014940969
47	0xbbb4906f	-0.005510382
48	0xbc3b0907	-0.0114157265
49	0x3cd648e4	0.026157804
50	0x3cb87e84	0.022521265
51	0xbc311729	-0.0108087445
52	0xbb10282e	-0.0021996605
53	0x3c03e607	0.008050448
54	0x38c0a18a	9.1853624e-05
55	0x3bd0fd6c	0.0063778665
56	0x3b86308e	0.0040951436
57	0x3ca88ecc	0.020575903
58	0x3c03e721	0.008050711
59	0xbca9046b	-0.02063199
60	0x3ce401fc	0.027832977
61	0xbb494d3c	-0.0030716201
62	0xbc460699	-0.012086534
63	0xbcd93884	-0.026516207
64	0x3bdeffa0	0.006805375
65	0x3d382a1b	0.04496203
66	0x3b583a8a	0.0032993876
67	0xbc90cec4	-0.017676719
68	0x3cffd930	0.031231493
69	0x3b2ef51f	0.0026696397
70	0xbbff6e49	-0.0077951294
71	0xbb961509	-0.0045801443
72	0x3cf363c5	0.02971066
73	0x3cc0b1c7	0.02352227
74	0xbc55b157	-0.013042769
75	0x3d5f72eb	0.054552954
76	0x3cea19a9	0.028576689
77	0x3c32ec79	0.010920637
78	0x3c28ac62	0.0102950055
79	0x3b4b8225	0.0031052914
80	0x3ab9224f	0.0014124605
81	0x3cbb4232	0.022858713
82	0x3d168822	0.03675092
83	0xbb08ed17	-0.002089327
84	0x3c195351	0.009358243
85	0x3cd2f401	0.025751116
86	0x3c21381e	0.00984004
87	0xbbead852	-0.0071669007
88	0x3bcb8e2e	0.0062120175
89	0x3c000339	0.007813268
90	0x3d1c3a67	0.038141634
91	0x3b46457c	0.0030253818
92	0x3b8fbf89	0.0043868464
93	0x3cc23a59	0.023709463
94	0xbc3839e7	-0.011244274
95	0x3b5efaf1	0.0034024084
96	0x3a847485	0.0010105526
97	0x3cc7f5d7	0.024409218
98	0xbc590eb4	-0.013248134
99	0xbbaca4ca	-0.005268668
100	0x3c4242e4	0.011856768
101	0x3c545982	0.012960793
102	0x3c4f787b	0.012663002
103	0x3c6dae22	0.0145068485
104	0xbc864e10	-0.016394645
105	0xbc41f612	-0.011838453
106	0xbc5a435f	-0.013321727
107	0xbb09de39	-0.0021036996
108	0x3bf7140e	0.0075402325
109	0x3b605595	0.0034230698
110	0x3c1584a5	0.009125863
111	0x3d4cfad6	0.050043903
112	0x3d47320f	0.048631724
113	0x3c8d204e	0.017227318
114	0xbba8d2d2	-0.005152085
115	0xbaaf4b94	-0.0013373964
116	0xbc7b5079	-0.01533901
117	0xbc7c7124	-0.015407834
118	0x3ca8e749	0.020618098
119	0xbcb489e4	-0.022038408
120	0xbd18e496	-0.03732737
121	0xbd32d1ca	-0.0436571
122	0xbc3ce2e5	-0.011528705
123	0xbb9bf9cb	-0.0047600023
124	0x3c0f5c42	0.008750023
125	0x3ab5cf44	0.0013870974
126	0x3cc935f4	0.02456186
127	0xbc042766	-0.008066034
128	0x3c3e8737	0.011628917
129	0x3c646507	0.013940102
130	0xb8cd36b1	-9.785349e-05
131	0xbc3e4714	-0.011613626
132	0x3c99cf1f	0.01877552
133	0x3cacf9f9	0.02111529
134	0x3cb9eaca	0.022694964
135	0x3c231ef0	0.009956107
136	0x3bc85771	0.0061139395
137	0x3a57696c	0.0008217308
138	0xba10339e	-0.00055008556
139	0xbc9df2ab	-0.019280752
140	0xbd3f0726	-0.046637677
141	0xbcc04eb1	-0.023475023
142	0x3d042f89	0.032271896
143	0xbc4e408a	-0.0125886295
144	0x3bfa313b	0.0076352633
145	0xbc1463e4	-0.009057019
146	0xbc59ab4e	-0.013285471
147	0xbc5cc0e2	-0.013473721
148	0xbac927b4	-0.0015346915
149	0x3c2fa900	0.010721445
150	0x3ca67bac	0.020322643
151	0x3b2a7fbb	0.0026016075
152	0x3c2b2b1a	0.010447288
153	0xb8d84f27	-0.00010314426
154	0x3c0f9d12	0.008765476
155	0xbd23931a	-0.03993521
156	0xbcd59e1b	-0.026076367
157	0xbcb32e4b	-0.02187266
158	0xbcebf120	-0.0288015
159	0xbcab1b51	-0.020887049
160	0xbcd0f736	-0.025508504
161	0xbc0923b0	-0.008370325
162	0xbc9c2e6e	-0.019065108
163	0xbc2e72ff	-0.010647534
164	0xbbfec044	-0.0077743847
165	0x3ae5cf39	0.0017533071
166	0x3aaa8db9	0.0013012207
167	0xbc92776c	-0.01787921
168	0x3c06d0e9	0.008228519
169	0xbca6fe3b	-0.020384898
170	0xbceb1c39	-0.028699981
171	0xbce8712c	-0.028374277
172	0xbc431d60	-0.011908859
173	0x3b821e1e	0.0039708754
174	0xbc5ce25c	-0.013481703
175	0xbb4a057a	-0.0030826018
176	0x3ca07782	0.019588236
177	0x3c408369	0.011750081
178	0x3c278c94	0.0102263875
179	0x3bb82187	0.005619231
180	0xbbcbe236	-0.006222035
181	0xbcef009b	-0.029175093
182	0xbcbae6d6	-0.02281515
183	0xbbe5e83f	-0.0070162113
184	0x3c5c9dd6	0.013465365
185	0x3c1dfca4	0.009642754
186	0xbcfd9d4a	-0.03095879
187	0xbce77da2	-0.028258149
188	0xbc46a48f	-0.012124195
189	0xbce57f29	-0.028014736
190	0xbb7b722c	-0.0038367612
191	0xbc85de32	-0.016341303
192	0xbc5c0ec2	-0.013431253
193	0x3bf4417b	0.007454095
194	0xbbefaac2	-0.007314057
195	0xbcfb9657	-0.030711336
196	0xbc9d3bdc	-0.019193582
197	0x3c11d484	0.008900765
198	0xbd5d23af	-0.05398911
199	0x3c14d7aa	0.009084621
200	0x3c12aefb	0.008952851
201	0x3ba2f36e	0.0049728667
202	0x3c94e39a	0.018174935
203	0xbc9b95e3	-0.01899237
204	0x3bae0619	0.0053107855
205	0x3b21756c	0.002463664
206	0x3c259182	0.010105493
207	0x3ccb6afa	0.024831284
208	0x3c896f9f	0.016776858
209	0xbbd25e85	-0.006419959
210	0x3cec6831	0.028858276
211	0x3c8de627	0.01732166
212	0x3c020656	0.007936081
213	0x3a899a00	0.0010498166
214	0xbc400a5b	-0.011721219
215	0x3c4511fb	0.012028213
216	0xbcac96a6	-0.021067929
217	0xbb563f4f	-0.0032691543
218	0xbc52d48c	-0.012868058
219	0xbb57bdde	-0.0032919566
220	0xbcb8ef40	-0.02257502
221	0xbc192aa2	-0.009348543
222	0xbc5f14a2	-0.013615759
223	0xbbeb7a7e	-0.007186233
224	0x3c106496	0.008813044
225	0x3c7dbf5b	0.015487517
226	0x398ee7e2	0.00027257117
227	0x3c302819	0.0107517475
228	0x3caa6947	0.020802153
229	0x3c75ad87	0.014994985
230	0x3c89f018	0.016838118
231	0x3b60445b	0.003422043
232	0xbb18d939	-0.0023322834
233	0x3ca1a1a0	0.01973039
234	0xbd369ea4	-0.044584885
235	0x3bcd56f4	0.006266469
236	0x3bdb6f39	0.0066966084
237	0x3c5567a4	0.013025198
238	0x3cab0014	0.02087406
239	0x3cd31966	0.025768947
240	0xb9c353bb	-0.00037255682
241	0x3c806ad6	0.015675943
242	0xbce82fd5	-0.02834312
243	0xbc81715c	-0.015801124
244	0xbcb5694f	-0.022144942
245	0x3c4fe0cf	0.012687876
246	0x3b245002	0.0025072102
247	0xbadffff9	-0.0017089836
248	0xbcd7a7cf	-0.026325135
249	0x3ba8cb09	0.005151157
250	0x3c922b18	0.017842814
251	0xbb9c18e8	-0.0047637112
252	0x3cb9e091	0.02269009
253	0xbc58b43b	-0.013226564
254	0xbce1f051	-0.027580412
255	0x3c01c926	0.007921493
