results/story_to_movie/S1/layer8_correlations.npy (npy, 324572 bytes, 1 tensors)

array f4 [81111]
0.034841206 0.052310783 0.023094952 0.017063102 0.0019426068 0.0027463515 0.030212475 0.01656289
-0.00012808085 0.039639954 0.07078434 0.02981012 0.008792491 0.032577906 0.038421575 0.030631129
0.018779032 -0.02372687 -0.026378024 -0.0037119745 -0.012568509 -0.0013091008 0.013166704 0.036326043
0.017533872 0.005515489 0.014074798 0.02195373 0.0014599899 -0.007168212 0.015659882 0.02288585
-0.0041235234 -0.009590219 0.0033636081 0.0030227539 0.01798698 0.027375313 0.010105854 -0.013844121
-0.00011273459 0.01632916 0.013312251 -0.022201495 0.027829217 0.011493619 0.009624117 -0.00085008086
-0.015053951 0.023582019 0.018228423 0.00505999 -0.017410522 0.015473174 0.010888199 -0.00072616595
-0.00748019 0.023588695 0.0084740175 -0.029893428 -0.0012926348 0.011066606 -0.016158933 0.016246986
0.0020635293 -0.0027737913 -0.015341514 -0.015121387 0.009986179 -0.009850378 0.0070089493 0.019174349
0.00699076 0.01493369 -0.0066867415 0.015032062 0.016218366 0.025145568 -0.012609684 -0.0020692023
-0.0050748507 0.016168471 -0.032398287 -0.0061274343 0.010387958 0.014112886 0.0036564714 -0.025256881
-0.020354493 0.0020077666 0.013703797 0.0051329946 0.017929412 -0.02763568 -0.0053640637 -0.009965152
0.0090918625 0.021943606 -0.0040289555 0.012547387 -0.017160276 -0.0063868826 -0.0017268726 -0.0041026184
-0.0013044578 0.007575824 0.0026284659 -0.007903185 0.015628833 0.006208867 -0.0058397045 0.015567748
0.023355696 0.029416673 -0.00060542143 0.002219533 0.011047784 0.009751384 0.013556333 0.020985344
-0.016056988 -0.012416141 0.0087362565 -0.018335614 0.0017161048 -0.0054209307 -0.01539274 0.03701263
0.0134664755 0.028079662 0.018703248 -0.0027993321 -0.012292101 0.0044251326 0.018177442 0.009136983
0.002852404 -0.020270301 -0.015944194 0.014051022 -0.009888769 0.008223077 -0.011451233 -0.026288899
0.014129058 -0.011486362 0.013689714 -0.0010487231 0.024499862 0.026651315 0.019026974 -0.0014442682
0.016464327 -0.014204343 0.020989414 0.022271248 0.017687744 -0.02288468 -0.015950145 -0.003796057
0.006497128 0.0074360403 0.029976415 -0.004049175 -0.027249055 0.010765819 0.0037075419 0.01371625
0.0008471704 -0.018244471 0.001739467 0.0015462341 -0.005313817 -0.01457407 -0.024073694 0.010748519
-0.02613576 0.0032994929 -0.031640653 0.015346772 -0.0073775793 0.015080433 -0.0044895215 -0.00045084037
0.040423457 0.02618261 0.012137117 0.0039648 0.004509005 -0.013023967 -0.024585642 -0.016375205
-0.01517631 0.0014555311 -0.03129597 -0.02900783 -0.014438214 -0.003941446 -0.0028472994 -0.004524303
-0.004055631 -0.019051341 -0.018340569 -0.0043731662 0.026255148 -0.03235178 0.01169909 0.04138815
0.028199673 0.025763141 0.03248518 0.0017300581 0.0037019951 -0.0008626412 0.0040853107 0.00013494234
-0.018910911 0.013980074 0.0003849879 -0.0043405155 -0.0023795182 -0.010521617 -0.0016703779 0.0070198756
-0.007844679 -0.013437044 0.015083217 0.006134746 0.004814368 -0.007872411 0.021734932 -0.028992394
-0.00840392 -0.013503292 -0.0014385621 -0.008104982 0.008339388 0.010400567 0.00972173 0.0061592287
0.002946445 0.002900946 0.0065613445 -0.0045645447 -0.015785236 0.021350691 -0.0031081946 0.012989248
-0.013782685 -0.018101977 -0.023648415 -0.010730809 0.002656627 0.01754666 0.032058742 0.016334007
00000000: a7b5 0e3d d543 563d a031 bd3c ebc7 8b3c
00000010: 119f fe3a 22fc 333b 2780 f73c e6ae 873c
00000020: 714d 06b9 815d 223d 61f7 903d 5a34 f43c
00000030: 610e 103c 6970 053d f15f 1d3d 22ee fa3c
00000040: 7cd6 993c da5e c2bc ba16 d8bc 9944 73bb
00000050: 26ec 4dbc 2296 abba 29b9 573c 9eca 143d
00000060: 32a3 8f3c 46bb b43b fb99 663c 4fd8 b33c
00000070: 225d bf3a 52e3 eabb 2749 803c 1b7b bb3c
00000080: 9f1e 87bb 4b20 1dbc fb6f 5c3b 6519 463b
00000090: 6e59 933c 3142 e03c 0693 253c 74d2 62bc
000000a0: ec6b ecb8 bbc4 853c a11b 5a3c e9df b5bc
000000b0: 19fa e33c bb4f 3c3c 79ae 1d3c f6d7 5eba
000000c0: d9a4 76bc 142f c13c c653 953c 46ce a53b
000000d0: 83a0 8ebc 3283 7d3c 6b64 323c 2c5c 3eba
000000e0: 621c f5bb 143d c13c 9bd6 0a3c 10e3 f4bc
000000f0: a06d a9ba b650 353c bd5f 84bc 6618 853c
00000100: 473c 073b 7fc8 35bb f95a 7bbc b2bf 77bc
00000110: 129d 233c 7b63 21bc 54ab e53b 8613 9d3c
00000120: bf12 e53b 70ac 743c 741c dbbb 0a49 763c
00000130: 61dc 843c 14fe cd3c d998 4ebc 749b 07bb
00000140: ef4a a6bb be73 843c 11b4 04bd a5c8 c8bb
00000150: 4132 2a3c bc39 673c 69a1 6f3b 85e7 cebc
00000160: 77be a6bc bc94 033b e485 603c ae32 a83b
00000170: b4e0 923c 3964 e2bc 07c5 afbb e044 23bc
00000180: 09f6 143c 14c3 b33c 5405 84bb 8e93 4d3c
00000190: b593 8cbc 0e49 d1bb 3b58 e2ba 426f 86bb
000001a0: 57fa aaba 9e3e f83b 5742 2c3b 5c7c 01bc
000001b0: 0a08 803c c073 cb3b fe5a bfbb de0f 7f3c
000001c0: 7254 bf3c 3cfb f03c 25b5 1eba 9675 113b
000001d0: c401 353c 45c4 1f3c 621b 5e3c 75e9 ab3c
000001e0: f289 83bc 126d 4bbc 8422 0f3c 9234 96bc
000001f0: ecee e03a 10a2 b1bb d531 7cbc 8e9a 173d
00000200: 7ea2 5c3c 5207 e63c 8e37 993c 0075 37bb
00000210: cf64 49bc b400 913b dce8 943c 49b3 153c
00000220: 66ef 3a3b e70d a6bc 669d 82bc 4236 663c
00000230: 8104 22bc 16ba 063c f49d 3bbc d15b d7bc
00000240: 917d 673c 4b31 3cbc d24a 603c 4f75 89ba
00000250: efb3 c83c dc53 da3c 75de 9b3c 994d bdba
00000260: 32e0 863c 55b9 68bc fef1 ab3c 3172 b63c
00000270: e3e5 903c a778 bbbc e1a9 82bc 45c7 78bb
00000280: dce5 d43b 07aa f33b 1991 f53c f1ae 84bb
00000290: 6939 dfbc 1e63 303c 3bfa 723b 1fba 603c
000002a0: a514 5e3a 6e75 95bc d4fe e33a 02ab ca3a
000002b0: 871f aebb 15c8 6ebc 3236 c5bc 8e1a 303c
000002c0: a91a d6bc 4e3c 583b a199 01bd 0771 7b3c
000002d0: 9fbf f1bb ec13 773c d61c 93bb c55e ecb9
000002e0: 1193 253d ea7c d63c c2da 463c 27eb 813b
000002f0: 47c0 933b 7a62 55bc d467 c9bc 4b25 86bc
00000300: 0fa6 78bc 85c7 be3a 3430 00bd d4a1 edbc
00000310: 428e 6cbc 3f27 81bb c299 3abb 9b40 94bb
00000320: 19e5 84bb 8f11 9cbc f63e 96bc c74c 8fbb
00000330: 0915 d73c 4d83 04bd 8aad 3f3c 9f86 293d
00000340: 0003 e73c 390d d33c 2e0f 053d 1ec3 e23a
00000350: 2c9d 723b df22 62ba 12de 853b 4f7f 0d39
00000360: 0eeb 9abc ae0c 653c 34d8 c939 e23a 8ebb
00000370: b1f1 1bbb dc62 2cbc 95f0 daba fc06 e63b
00000380: f886 00bc 0c27 5cbc 991f 773c fb05 c93b
00000390: d9c1 9d3b 49fb 00bc 750d b23c 7581 edbc
000003a0: 98b0 09bc e93c 5dbc 228e bcba c2ca 04bc
000003b0: eea1 083c 2467 2a3c e447 1f3c 5bd3 c93b
000003c0: 2519 413b cc1d 3e3b 8c00 d73b 2d92 95bb
000003d0: 0a50 81bc a5e7 ae3c dab2 4bbb dbd0 543c
000003e0: c5d0 61bc 994a 94bc 52ba c1bc 46d0 2fbc
000003f0: ce1a 2e3b 03be 8f3c 0750 033d e5ce 853c
