results/story_to_movie/S1/layer8_correlations_originalAlphas.npy (npy, 649016 bytes, 1 tensors)

array f8 [81111]
000000 61 34 df d4 f6 38 91 bf fa ee 1a 8f 72 5b 80 3f
       -0.01681886362330365 0.007986922256683727
000010 c5 02 bd b2 7c 72 22 bf 51 ec 17 62 4c 70 61 bf
       -0.00014074108309538292 -0.0021287433489738735
000020 51 49 fe a1 c9 83 8f 3f f9 2b 14 2c 14 f1 8b bf
       0.015388083702224139 -0.013643415064981556
000030 62 a2 07 81 fb 7b 70 3f 7c 49 43 b2 6d f7 83 bf
       0.004024488866413907 -0.009749276163721225
000040 e2 71 5e a9 54 44 a0 bf c0 f9 78 d8 22 51 98 bf
       -0.0317713219403435 -0.023747009718357637
000050 f4 f2 3a 78 27 9f 93 bf b1 b6 4f ca cb f5 6c 3f
       -0.019161812508843704 0.0035351734427340954
000060 b6 b9 bf 1b a1 61 7a 3f ea 6a 50 b4 55 d5 75 bf
       0.006440762834229499 -0.005330405027985855
000070 c9 c2 93 2c 14 2c 96 3f 10 15 64 78 27 9c a4 3f
       0.02165252229764539 0.04025386185279889
000080 7a 6f 28 2d ee f7 7f bf 97 e1 70 ba a0 9d 91 bf
       -0.0078048042073780525 -0.017202865008785286
000090 3e 5d 1d c2 57 37 95 3f 6a b2 3f 3e c4 df a3 3f
       0.02071892854959611 0.0388165784823727
0000a0 ea 42 bc 84 68 ae 99 bf 44 76 28 96 3a 90 91 bf
       -0.025079377271199833 -0.017151751913948368
0000b0 40 aa 15 d9 b9 27 8f 3f fa 7d 84 43 f3 48 7d 3f
       0.015212490022084357 0.0071496489038334
0000c0 54 cb d3 98 48 5b 76 3f cf 56 78 fd 5c 48 95 3f
       0.005458148557624682 0.020783856363854988
0000d0 20 30 e8 48 42 5b 89 bf 9a 71 5e f0 ae d7 71 3f
       -0.012381093835777846 0.004356082301367437
0000e0 16 34 56 53 03 03 51 bf b9 c6 e1 f0 7b ea 76 bf
       -0.0010383160091322944 -0.005594715256039323
0000f0 31 fe f9 9a 6d 86 53 bf 8f 10 e5 c4 09 a0 85 bf
       -0.001191718136311592 -0.010559154816867781
000100 7a 8d c0 c4 c1 6f a1 bf c9 5c 57 09 40 31 92 3f
       -0.03405576254615546 0.0177659993840649
000110 66 a8 0c b5 c3 2a 8d 3f 5e d4 2f 15 0c 4f 20 3f
       0.014241723025026864 0.00012442610258714659
000120 39 b3 8c 7b 91 f4 97 3f a6 75 6f e8 42 aa 98 3f
       0.023393891492719397 0.024086995541315347
000130 cf a8 66 40 70 98 8e 3f 04 88 39 f7 c3 68 60 bf
       0.014939190831530528 -0.002003081079053894
000140 b7 83 32 ed b4 56 87 3f bd 34 34 70 c7 66 81 3f
       0.011395848740279975 0.00849681674164981
000150 1a e4 a7 af cd 11 99 3f c2 d8 e9 95 48 f1 6b bf
       0.024481977316075022 -0.0034109513938417055
000160 e7 3d 6a 04 02 9c a3 bf e2 07 9b eb 09 6e b0 bf
       -0.03829962066549424 -0.06417905809487892
000170 9b 2c 6a 88 ed 6e a7 bf 19 f6 bc cd 7e 4e 98 3f
       -0.04576818742960961 0.02373693590856449
000180 0a 14 e9 71 41 30 8a bf 8c fe eb 8f 48 7e 8f 3f
       -0.012787352837344574 0.015377585308214557
000190 6b fe 0b bf 34 76 6e 3f ca 1b 45 b8 68 40 7d 3f
       0.003718474407264518 0.007141503392921808
0001a0 6c f6 62 0e b7 0f 7f bf c0 d6 f7 8f 9d d0 82 3f
       -0.007583346427222897 0.00918696494680249
0001b0 37 c3 23 2d 89 16 82 3f 95 52 19 85 2b e7 89 bf
       0.008832046213201756 -0.01264795303283365
0001c0 9b 68 94 8f a9 e0 a1 bf 1a d8 99 ec d2 2b 7c bf
       -0.034917162682362966 -0.006877731249565167
0001d0 3c 37 a6 fe 90 be a0 bf 6e 22 10 d6 25 09 83 bf
       -0.03270390614043925 -0.009294791789231396
0001e0 20 07 1e b2 97 ef 80 3f 42 22 3c 24 ed 0c 87 3f
       0.008269486544807914 0.011255123775769541
0001f0 db 68 a1 d7 6e 15 87 bf e4 e4 f1 72 78 df a1 bf
       -0.011271348910828418 -0.034908069640502665
000200 5b 48 a1 22 fc 47 6d 3f 9e 47 b9 ba 50 29 8b 3f
       0.0035743641392765152 0.0132623965247694
000210 e7 a1 eb 44 f8 21 7e bf 3f 96 6e 1d 0a 62 a0 bf
       -0.007356614877359813 -0.03199798211361981
000220 17 85 69 14 f1 dd 92 3f 15 0b 23 89 81 80 77 bf
       0.018424765463696504 -0.005737787245552868
000230 31 11 6a b5 53 7e a2 bf 0c 24 f7 46 c3 2b 7a bf
       -0.03612004842310269 -0.006389391709896063
000240 b4 a4 f7 9e 27 c1 6a bf 0e 23 7c 08 b8 75 88 3f
       -0.003265931496333774 0.011943280943812275
000250 82 91 76 dc 91 55 7e 3f 9e b4 2f c5 9c 34 86 3f
       0.007405824442148991 0.010842537658357462
000260 19 ec 8a 53 c5 54 5b 3f b2 ca 7d 70 d6 15 71 bf
       0.0016681601538681755 -0.0041712166347333424
000270 45 c5 27 8f 03 52 4d 3f 7b bb 65 b2 83 c1 8e 3f
       0.0008947865847500977 0.01501753700423846
000280 ab 02 4d 04 d2 9c 95 3f 9e be e7 92 a6 9d a1 3f
       0.021106034767628994 0.034405904228944836
000290 a5 0c 93 b9 f2 5b 9a 3f 51 5c 51 7b d0 0e 91 3f
       0.025741379334033216 0.016658074881288624
0002a0 2e ea 44 88 c9 f9 93 3f a5 4d 67 67 82 b2 60 3f
       0.019507550184451876 0.002038244910389247
0002b0 0b cd fd d5 c6 26 67 bf 31 a2 fc f1 43 b9 32 bf
       -0.002826107360243695 -0.0002857008821473299
0002c0 0a d4 d6 14 48 39 3f 3f 52 e1 8c 56 13 9a 91 3f
       0.00047643670844915774 0.01718931403886021
0002d0 b4 ea 2b 9b f6 51 90 3f 5e fd f6 25 c1 62 96 3f
       0.01593766519634228 0.021861093465984076
0002e0 11 57 cc 16 9b 67 77 3f 15 dd 30 83 3e 9e 64 bf
       0.0057140405813436304 -0.0025168629595345806
0002f0 1e a9 16 01 78 bf 94 3f 2b 69 66 a4 3a e3 94 3f
       0.020261645380437725 0.02039806011598803
000300 5a a9 e6 fe 0d ad 8f 3f 57 39 f3 5a 78 59 ac 3f
       0.015466794339620438 0.0553701029799522
000310 cf c7 fc ca ea 96 89 3f f9 f2 10 79 e2 9e 59 3f
       0.012494882888493123 0.001563759961086207
000320 d9 77 3e 7e 13 a1 86 3f b7 cb 9e 06 8c 4e 65 3f
       0.011049415865098599 0.0026009306793297288
000330 a4 dc 94 f0 12 48 71 3f f7 7f 3e d7 9c e6 98 3f
       0.004219125731928095 0.02431721748109791
000340 96 60 fe 38 a0 a1 8d bf 3a c9 d5 df ff c8 80 bf
       -0.014468433131512175 -0.008195876139073566
000350 14 95 0c 0a db 39 56 bf a7 27 d8 e2 6f 18 86 bf
       -0.0013565672927112237 -0.010788797483673408
000360 72 8b e8 6b 13 f1 80 3f 8f ad e0 6b f3 48 98 3f
       0.008272315722086285 0.023715785464600677
000370 ae b3 e6 9d 36 49 90 bf 31 da 84 b0 7a 85 8b 3f
       -0.01590428675415339 0.013438185226374607
000380 7e d3 d5 5a 7b 01 8c 3f f9 17 ff c5 b1 94 96 3f
       0.013674701413700193 0.02205159922575459
000390 fa e2 e9 d9 8f ac 88 3f 36 f9 8a bb 7c f0 8b bf
       0.01204788573999015 -0.01364228675208477
0003a0 00 6c 0c 20 eb 63 74 3f 70 bf 93 15 06 96 7a 3f
       0.0049781021669117465 0.006490730063191438
0003b0 1e 1f d1 56 3b 59 4c bf 2f f1 e5 a8 98 0b 8e 3f
       -0.0008651294462049574 0.01467055573879658
0003c0 7b 00 be e1 76 b3 8b 3f 32 f6 cb f9 7f e3 8f bf
       0.01352589489374644 -0.015570640383425791
0003d0 0a 94 d8 ae 67 5d 5d 3f 35 48 b8 88 3a cb 85 bf
       0.0017922890214177056 -0.010641534135206946
0003e0 3b 19 dc 1b bf 8a 65 bf f5 d3 e3 d5 4a 78 97 bf
       -0.002629636058261967 -0.0229198163078372
0003f0 d0 ad 2d a5 ef 86 9e bf 25 34 f1 a0 f6 16 56 3f
       -0.029811615425769322 0.0013482483370979095
000400 8e 1f e1 ce fb dd 93 bf 94 a4 27 b5 bd 34 92 3f
       -0.019401487829128032 0.01777931612187851
000410 65 cf 81 f3 ae 42 9a bf 19 af 5a 64 20 b0 75 bf
       -0.02564500199555599 -0.005294920474323361
000420 ee 34 2e bd 0e 7b 87 3f 6a 49 07 55 66 2d 73 3f
       0.01146518244584135 0.004681968436175724
000430 00 35 f7 2c c2 fc 98 3f 5c 01 82 ab c3 77 72 bf
       0.024401697153554558 -0.004508747421027994
000440 5a 3e 2f 8b 58 a6 97 bf ae 95 3c e9 5c eb 88 3f
       -0.023095496649885618 0.012167669170206032
000450 7e 6e 49 09 80 7a 78 3f 40 18 78 b1 5b 42 93 bf
       0.0059762002389011065 -0.01880782385526225
000460 d7 4a eb 51 19 3d a4 bf e5 f7 d8 58 be 52 67 3f
       -0.03952864766110558 0.0028470723835018912
000470 ac 21 68 be c4 bf 54 3f 30 96 68 2e 60 e5 83 bf
       0.0012664243055287945 -0.009714843193317696
000480 4b 09 7b 1a de e4 83 bf 24 b8 56 0a b2 61 90 bf
       -0.009713874037860967 -0.015997678643252425
000490 da 73 87 dd a0 e2 93 3f 09 c7 08 27 56 45 9f bf
       0.01941920616251367 -0.03053793538328534
0004a0 fa d7 f9 34 57 93 8f bf 3f bc d5 95 f2 48 95 3f
       -0.015417748741338489 0.020786085505673176
0004b0 06 37 d3 98 4e 36 a1 3f f2 5c 7e 3a 40 9e 66 3f
       0.03361745467701209 0.0027610067808826405
0004c0 22 b0 f6 e8 93 04 5e 3f c6 cd 69 70 05 56 9f 3f
       0.0018321461137516056 0.03060158251396474
0004d0 fe ef 6d 8f 19 d4 91 bf b4 dc 39 d6 45 95 81 3f
       -0.017410659198034743 0.00858549652114813
0004e0 ba 22 8a 7d 98 51 97 3f 2a 27 9d 1e 76 7f 99 3f
       0.022772200262383115 0.024900289171717528
0004f0 fa a7 20 65 fb 3d 86 bf 56 1a 44 b8 35 88 91 bf
       -0.010860408805530842 -0.017121161815362683
000500 79 55 c6 df 4b 92 76 bf 54 40 c0 17 91 9d 92 bf
       -0.005510612853318769 -0.018179194521565314
000510 3b cb df db e5 c1 9b bf c6 41 69 b8 81 69 82 bf
       -0.02710684923654159 -0.008990300598413447
000520 4e 33 60 5e 36 d1 8f 3f dc e9 be ed b5 4a 8f 3f
       0.01553575969230683 0.01527921802322834
000530 59 22 13 d3 91 e0 91 3f 40 3f 06 13 24 37 8c 3f
       0.017458227642040167 0.013777047949389165
000540 ef 8a 9a 11 01 3d 71 3f 25 32 7f f4 3c 82 a4 bf
       0.0042085687397583746 -0.040056137891586276
000550 0c eb ea 15 e0 0f 9f bf 5b 0d 27 39 c3 34 98 3f
       -0.03033399709486688 0.023638773310961408
000560 55 99 63 aa fe f2 54 bf e5 e4 5d e5 6a 96 8c 3f
       -0.001278637596948314 0.013958773731916849
000570 21 26 e5 6f 03 b1 76 3f b7 f4 08 5e f4 3b 84 3f
       0.005539906908163001 0.00987997924777982
000580 bf 6a 1d 22 04 9b 93 3f 14 7f 88 99 5c ef 9f 3f
       0.019146027166565768 0.031186529990122017
000590 a9 77 85 f3 40 26 8d 3f 00 fb be 15 09 89 5f bf
       0.014233119422609368 -0.0019247616501016362
0005a0 c7 75 08 3f df 83 6a 3f 54 2c a9 3d 97 30 81 bf
       0.003236709621218667 -0.008393460816611555
0005b0 26 0a ef 8b 86 bb 87 3f d4 44 08 7d 7c 0b 8d bf
       0.01158814539474402 -0.014182064595873824
0005c0 b1 93 fa 52 55 bd 7f bf ae d4 38 17 9b 0b 7f 3f
       -0.007748921677976848 0.007579427550401236
0005d0 bb db ce 55 f2 60 89 bf 94 c7 88 65 c4 16 98 bf
       -0.012391942256597113 -0.023524349877511577
0005e0 9f d6 7e de 7f cc 90 bf de 9f 71 09 b3 8b 96 bf
       -0.016405103640599546 -0.022017285777479738
0005f0 e4 4a 5a a1 8e 60 87 3f 20 a1 a9 1b 50 ea 94 bf
       0.01141463689717654 -0.02042508286322786
000600 ab a4 7f 2b 4d 17 97 bf 42 16 45 0b fa 8b 9e bf
       -0.022549825458473432 -0.02983084386621316
000610 5a b5 30 67 b5 55 a2 bf e0 65 2d c7 97 90 9c bf
       -0.03581015476843659 -0.02789532807523709
000620 1a e1 d0 5a 4a 53 93 3f 56 b8 4a 09 1f c5 5e bf
       0.018872415345158357 -0.001878052052386466
000630 c6 2f d9 53 90 f9 a0 bf 3b c1 5c 15 58 96 82 3f
       -0.03315402053394183 0.009075821067739845
000640 7e c1 98 8b 48 88 66 bf d5 93 8f 02 04 9b 6b 3f
       -0.0027505318546660598 0.0033698156662347136
000650 f4 2b 98 2f a1 94 88 bf a5 c5 33 cf 16 4f 70 3f
       -0.012002238526312305 0.0039816752425720124
000660 09 49 90 6a 42 09 7c 3f e0 96 88 08 4c c6 84 3f
       0.006844767988712038 0.010143846521781297
000670 f1 37 a8 4d 67 5e 97 bf 01 24 4b 41 43 97 5b bf
       -0.02282105838281007 -0.0016840130603432704
000680 56 37 27 ab 90 84 7e bf 89 36 27 c2 06 b7 96 3f
       -0.007450642692175288 0.022182565307778766
000690 f9 7b 96 32 4a 91 82 bf 1b 80 7a 1f 75 9e 8e bf
       -0.009066180867021588 -0.014950671218059644
0006a0 71 b2 9d 56 2f bd 84 3f fb a8 f8 72 e0 3f 57 bf
       0.010126466589747115 -0.0014190379987533686
0006b0 c5 4a b7 78 6c c7 94 3f 99 49 66 a7 36 04 70 bf
       0.02029199110786341 -0.003910268298925956
0006c0 e6 f4 0d 13 73 b2 97 bf f6 21 09 0f 43 22 84 3f
       -0.02314166835593747 0.009830974480011339
0006d0 11 79 c8 fa ec db 96 bf 32 b2 1d b2 74 4c 97 bf
       -0.022323324972711115 -0.022752593394601735
0006e0 82 e0 43 39 68 81 82 bf f1 8a d9 8c e8 b8 9d bf
       -0.009035887000649948 -0.029025682064807993
0006f0 a9 f0 82 a9 35 26 92 bf 09 5a 76 76 15 d5 92 bf
       -0.017723883124504045 -0.018390975337377245
000700 ff 25 2e 73 08 80 71 3f 4e cb 7a 37 cf d7 62 3f
       0.004272492415915873 0.0023001715852272514
000710 ea 59 84 0d 62 5e 92 3f 17 fc e4 d9 ac 27 7c bf
       0.017938167643558524 -0.0068737747190530584
000720 f5 cc d1 fc 34 ed 93 bf f1 5b e5 4f 63 48 94 bf
       -0.019459560328368892 -0.019807388068638635
000730 07 d9 08 67 64 67 50 3f 7a 8f 4d 83 bc 09 a1 bf
       0.0010012131207424739 -0.03327740767306771
000740 79 82 cd c7 aa 06 8b 3f 01 71 3d c7 2a da a1 3f
       0.013196310255524356 0.03486760789994215
000750 7f d9 80 cb 12 9a 92 bf ce b3 57 a6 fb 42 92 bf
       -0.01816586844525991 -0.017833644893403826
000760 4e ea 38 9d 79 a3 96 bf 30 73 69 e7 fc f7 67 bf
       -0.022107982846345124 -0.002925867035897055
000770 1b c6 78 2a 78 d8 98 bf 2c d8 1a af fc a5 a0 bf
       -0.024263265220900814 -0.0325163806677867
000780 07 ee 7f 28 8c 59 52 3f 37 3f f1 c9 11 0c 82 3f
       0.0011199825985376292 0.00881208322076042
000790 79 12 38 68 d3 0f 5d bf 51 c3 3d b8 ed 36 74 bf
       -0.0017737926981463965 -0.0049351964879498925
0007a0 c2 ac 8d 3c df f9 84 bf a2 0a f8 3f f9 53 6e bf
       -0.010242218051379818 -0.003702151123208112
0007b0 06 68 7e f3 5b d3 a0 bf 52 8c b8 df 0a 77 91 3f
       -0.03286254260383718 0.017055673508491083
0007c0 69 54 35 b8 bc 54 73 3f c0 62 d4 eb 4f d7 72 bf
       0.004719483552738082 -0.004599868957733733
0007d0 8b 85 e6 2d 75 ef 72 bf 45 3f 0a f9 95 9f 5b bf
       -0.004622895938525838 -0.0016859974458931098
0007e0 bc 7c cf 6f 02 b1 62 bf 8b a2 58 ab 7b 78 81 3f
       -0.002281670340820689 0.008530584494182555
0007f0 02 da 1b 5b 96 5f 77 bf db 23 72 f7 2f 0c 62 3f
       -0.005706393554410829 0.0022030770156260377
