results/story_to_movie/S1/layer8_correlations.npy (npy, 324572 bytes, 1 tensors)

array f4 [81111]
0	0x3d0ddc1f	0.034633752
1	0x3d64f5ec	0.055898592
2	0x3cde5fe1	0.027145328
3	0x3c0e888f	0.00869955
4	0xbc116ca8	-0.008876003
5	0x3aeae105	0.0017919844
6	0x3c32ecd0	0.010920718
7	0x3c1cb96e	0.009565694
8	0xbb080cf9	-0.0020759685
9	0x3d191333	0.037371825
10	0x3d8a235a	0.06745024
11	0x3cdd5aa2	0.027020756
12	0xba8fe3e7	-0.0010977954
13	0x3cc18d91	0.023627074
14	0x3cfd84cb	0.03094711
15	0x3d165212	0.036699362
16	0x3cb75ede	0.022384103
17	0xbcd2090e	-0.025639083
18	0xbcf4051e	-0.029787596
19	0xbc17025b	-0.00921687
20	0xbcc74b3c	-0.024327867
21	0xbbc2a434	-0.0059399847
22	0x3b594cd4	0.0033157365
23	0x3cc9e33e	0.02464449
24	0x3c70740c	0.014676105
25	0x3b104e07	0.0022019164
26	0x3bd7ad4f	0.0065819393
27	0x3c45112c	0.01202802
28	0xbc72691e	-0.01479557
29	0xbc770166	-0.015076017
30	0x3c40fb00	0.011778593
31	0x3cb54a4c	0.022130154
32	0x3bca69c9	0.0061771614
33	0xbc5bbfa1	-0.013412387
34	0xbad46185	-0.001620338
35	0xbb82abb9	-0.003987756
36	0x3c40329e	0.011730818
37	0x3ccf0957	0.025273008
38	0x3b23663e	0.0024932767
39	0xbc8bcc0c	-0.01706507
40	0x3b9c8a79	0.0047772494
41	0x3cbc3519	0.022974538
42	0x3c2b437f	0.010453104
43	0xbcc5401f	-0.024078427
44	0x3d0b5307	0.034014728
45	0x3c81a3f6	0.015825253
46	0x3c1fddd0	0.009757474
47	0xbc0557c6	-0.008138603
48	0xbca142e0	-0.019685209
49	0x3cb8fba9	0.022580938
50	0x3c51bca0	0.012801319
51	0xbc029367	-0.007969714
52	0xbcad0b90	-0.021123677
53	0xbc85da56	-0.016339462
54	0x3c38f0e9	0.011287906
55	0x3c8fa214	0.01753334
56	0xbab881fb	-0.0014076823
57	0x3cc3e196	0.023911279
58	0x3cc39bd0	0.023878008
59	0xbce38a55	-0.027775923
60	0xb9fd16b2	-0.0004827283
61	0x3c5c1147	0.013431854
62	0xbcab6a5e	-0.020924743
63	0x3c7b5116	0.015339157
64	0xbb8bb547	-0.0042635533
65	0xba3a0c80	-0.00070971996
66	0xbb9b0463	-0.0047307475
67	0xbb97131c	-0.0046104323
68	0x3bfe77b6	0.0077657355
69	0xbc4c03be	-0.012452064
70	0x3c4f98aa	0.012670675
71	0x3c62540a	0.013813982
72	0x3b21428e	0.002460632
73	0x3be9a83a	0.00713065
74	0xbb86cab7	-0.004113521
75	0x3ca46be6	0.020070981
76	0x3c2f4d02	0.010699512
77	0x3c2e521b	0.010639693
78	0xbc59adba	-0.013286049
79	0xbba9a3b7	-0.005176987
80	0xbc196276	-0.009361854
81	0xbc360d6a	-0.011111597
82	0xbce1d0f4	-0.027565457
83	0xbba7067a	-0.0050972076
84	0x3c74b2fe	0.014935253
85	0x3c73c782	0.014879109
86	0x3b7d7ce2	0.0038679172
87	0xbc2f1a1e	-0.010687379
88	0xbcd1dd3e	-0.025618192
89	0xbbfda2be	-0.0077403476
90	0xbb9b4df6	-0.0047395183
91	0x3a19e19a	0.0005870104
92	0x3c93d207	0.018044485
93	0xbcea7924	-0.028622217
94	0xbc0e4906	-0.008684402
95	0xbc2e43a6	-0.010636246
96	0x3bc14d36	0.005899097
97	0x3c9df5e5	0.01928229
98	0x3b22fa6c	0.0024868501
99	0x3c4cf3e5	0.012509321
100	0xbca87dc2	-0.020567778
101	0xbc0e1f66	-0.008674478
102	0xbaa13635	-0.001229948
103	0xbb858815	-0.00407506
104	0xbc509b47	-0.0127323335
105	0xbaee3a5e	-0.0018175354
106	0x39d47c62	0.00040528463
107	0x3aceb49f	0.0015770382
108	0x3d43c1aa	0.047792114
109	0x3c133ca2	0.008986624
110	0xbb524645	-0.003208534
111	0x3c0a5c96	0.008444926
112	0x3ccc0f36	0.024909597
113	0x3c6b3720	0.014356405
114	0x39f024cf	0.00045803792
115	0x3b5c4b62	0.0033614268
116	0x3c2748dc	0.010210242
117	0x3c894370	0.01675579
118	0xbbd09c4c	-0.0063662883
119	0x3c0037d4	0.00782581
120	0xbcacf910	-0.021114856
121	0xbc8acce6	-0.016943406
122	0xbb0f825b	-0.0021897766
123	0xbc56a40a	-0.013100633
124	0xbb92f27e	-0.0044844737
125	0x3c1aa03a	0.009437615
126	0xbc9db3b4	-0.019250728
127	0x3d22019b	0.039552312
128	0x3c0bb557	0.0085271215
129	0x3d05117c	0.032487378
130	0x3d2abea5	0.04168572
131	0xbc5232eb	-0.012829523
132	0xbc393847	-0.0113049215
133	0x3c27bc69	0.010237792
134	0x3c969737	0.018382652
135	0x3becbcc1	0.0072246497
136	0xbab24be0	-0.0013602935
137	0xbc69d767	-0.014272547
138	0x3bd96ee0	0.006635532
139	0x3c4354e7	0.011922098
140	0xbc05d3b0	-0.008168146
141	0x3c599936	0.013281157
142	0xbc960be4	-0.018316217
143	0xbce27d9a	-0.027647782
144	0xbcf0427a	-0.029328573
145	0xbbcafa86	-0.0061944155
146	0x3c85cf87	0.016334308
147	0xbba414cf	-0.0050073634
148	0x3cc9906f	0.024605004
149	0x3d18b376	0.037280522
150	0x3c31f6e7	0.010862089
151	0x39f040cf	0.00045824653
152	0xbc8ae368	-0.016954139
153	0xbc195cd1	-0.009360508
154	0x3cdc711e	0.026909407
155	0xbc4f3a7e	-0.012648223
156	0x3c91da71	0.017804356
157	0xbb374f3f	-0.0027970818
158	0xbb178ecf	-0.0023125892
159	0xbb3bac41	-0.0028636607
160	0x3b58036a	0.003296102
161	0x3bcd2766	0.0062608
162	0x3d059b67	0.032618906
163	0xbc1fc066	-0.009750461
164	0xbcf73e72	-0.030181143
165	0xb9bd264a	-0.00036077417
166	0xbcc7b1fc	-0.024376862
167	0x3be961ef	0.0071222703
168	0x3ba1d6ea	0.00493895
169	0xbc9e4366	-0.019319247
170	0xbc86bcfc	-0.016447537
171	0xbcb5ab4c	-0.022176407
172	0xbc8782c7	-0.016541852
173	0xbc30551e	-0.010762481
174	0xbc6a5f47	-0.014304942
175	0x3cde2242	0.027115945
176	0xbd251c55	-0.040310223
177	0x3c3032a4	0.010754261
178	0xbc7690de	-0.0150491875
179	0x3bdb2db4	0.006688798
180	0xbc1741f6	-0.009232035
181	0xbba6835e	-0.005081578
182	0xb995879e	-0.00028520537
183	0xbc1158d6	-0.008871278
184	0x3d11a9a1	0.03556216
185	0x3ca51c40	0.020155072
186	0x3c9549ab	0.018223604
187	0xbaae7cfb	-0.0013312394
188	0xbbf3dd22	-0.0074421326
189	0xbc89e056	-0.016830605
190	0xbcd2b8de	-0.025722917
191	0xbc89703c	-0.01677715
192	0xbc28ee6c	-0.01031075
193	0xbaa30dd7	-0.0012440038
194	0xbd20caa4	-0.039255753
195	0xbcf5192b	-0.029919228
196	0xbcc38d52	-0.023871098
197	0xbb2cddee	-0.0026377398
198	0xbbe85495	-0.007090161
199	0x3a293e3f	0.0006456114
200	0xba235c14	-0.0006231677
201	0xbc49455c	-0.012284603
202	0xbaba2a9e	-0.0014203375
203	0x3c04d9b3	0.008108544
204	0x3d14486c	0.03620188
205	0x3bf1487b	0.0073633767
206	0xbca8a6de	-0.020587381
207	0x3be41151	0.006960072
208	0x3ce56dbf	0.028006433
209	0x3cd82051	0.026382597
210	0x3cae6e76	0.021292906
211	0x3ae1294a	0.0017178443
212	0xbb9c393f	-0.0047675665
213	0xbc546fb6	-0.012966087
214	0x3c67d6d6	0.014150342
215	0xb90e8f4f	-0.00013595562
216	0xbca5c5e0	-0.020235956
217	0x3c8edae4	0.01743836
218	0x398704fb	0.00025752917
219	0xbac8f7a7	-0.0015332595
220	0x3ad4fd4e	0.0016249807
221	0xbc841492	-0.01612309
222	0x3b3ac7af	0.0028500368
223	0x3c09a24a	0.008400509
224	0x3a9ec514	0.0012113177
225	0x3c933baa	0.017972786
226	0x3c1c57f9	0.009542459
227	0x3bc2f109	0.005949144
228	0x3b899627	0.0041988078
229	0x3be68a99	0.007035565
230	0x3c764dd6	0.015033206
231	0xbcbc6c8f	-0.023000984
232	0xbc3b6f7f	-0.011440157
233	0xbbe2c804	-0.0069208164
234	0x3b226187	0.002477737
235	0xbc4eda65	-0.0126253115
236	0x3c1b1037	0.009464315
237	0x3c1b7fc9	0.009490916
238	0x3ba7616c	0.005108049
239	0x3b5e7446	0.0033943816
240	0xbba34222	-0.004982249
241	0x3a0b832b	0.0005321975
242	0x3c86e801	0.01646805
243	0xbb888fee	-0.0041675484
244	0xbc7793b4	-0.015110899
245	0x3c8cf757	0.017207785
246	0xbbb4d15b	-0.005518121
247	0x3c656e32	0.014003323
248	0xbc265571	-0.010152207
249	0xbc316a45	-0.010828559
250	0xbcc7947a	-0.024362791
251	0xbc857d8f	-0.016295223
252	0xbc867c1f	-0.016416607
253	0x3c2bdde0	0.010489911
254	0x3ca45d04	0.020063885
255	0x3ca5f474	0.020258166
