results/movie_to_story/S1/old/layer9_correlations.npy (npy, 649016 bytes, 1 tensors)

array f8 [81111]
0	0x3f926e5e1ed4405e	0.017999144202861188
1	0xbfa2d2b409cd6250	-0.03676378841072803
2	0xbfa44a3080e0482f	-0.039628520709939934
3	0xbf8996bde69ad381	-0.012494548416137398
4	0xbf83d1877a751d58	-0.009676989006620104
5	0x3f8fb1150c756a25	0.015474476282794811
6	0xbf9c3abfff52d0aa	-0.02756786342497778
7	0x3f84603ae05316bb	0.009949169131128746
8	0x3f6c3dfe9554ad3b	0.003447530015042636
9	0xbf9730c99749e93f	-0.022647046908312204
10	0xbf9c2dd10bf3f772	-0.027518526415398488
11	0xbf902667189ca8a7	-0.015771494748300665
12	0xbf6ff768220c7718	-0.0039021524284085334
13	0x3f803751bed848f2	0.007918013226149576
14	0xbf7c427a6fc2cab8	-0.006899336116634451
15	0xbf9423297770bae2	-0.01966538230424931
16	0xbf91eeb507d976be	-0.017512158016294015
17	0x3fa27e51ecd3d329	0.03611999526939364
18	0x3f6afb6e39893e74	0.0032937195613056917
19	0xbf81e2e65cca0995	-0.008733558375074316
20	0x3f8cb11c9c1f2889	0.01400968886800437
21	0x3f78ac1abea52a1a	0.006023506614222041
22	0xbf5855d18b1c0f5e	-0.0014853044817195386
23	0xbf714524fec95173	-0.0042163319709128564
24	0xbf816777773c93fe	-0.008498128248513478
25	0xbf8ad7950b872d99	-0.013106502928073737
26	0x3f9ad6865f20b9fb	0.026208972507612654
27	0x3f803574f73a8372	0.007914460940186639
28	0x3f8022b86847e907	0.007878723795319077
29	0xbfa28f437cf0ad4c	-0.03624926471851583
30	0xbf9c2cb91b042cbb	-0.02751435496706443
31	0x3f564b7175a1ca4e	0.001360760498326247
32	0xbf5d4db53cbe1204	-0.0017885465522066166
33	0x3f952944619005fd	0.020665234045742043
34	0xbfb084d4cb05e4d4	-0.06452684361092348
35	0xbf9cf424df5458b7	-0.028275085574102046
36	0xbf80013541b9891e	-0.007814804142246386
37	0x3f7dda55f3b72baf	0.007288299322179378
38	0xbf92111331aed9b8	-0.017643260867510085
39	0x3f94caa053c2c004	0.02030420790896416
40	0x3f889ea6354f7b96	0.012021349431902622
41	0x3f7ac7d186f6d1b3	0.0065382179886239065
42	0xbf7c2681b6aff347	-0.006872660344922127
43	0xbfa37aa05efb1284	-0.03804494056160926
44	0x3f8be01ac2567014	0.01361103921481547
45	0x3f7841bf67300d2b	0.005922076862592089
46	0x3f9203bca03edaf6	0.01759237983761871
47	0x3f94620b2ddc158c	0.01990525691419047
48	0xbf9654a883d7b848	-0.02180732063964566
49	0x3f6400697ac9c618	0.0024416027211422546
50	0xbf028736cedfd800	-3.5339698896949545e-05
51	0xbfa53635e8bb9ddc	-0.04142921892144688
52	0x3f8ed7f2f1abe85c	0.01506032753012592
53	0xbf848b5481551c2d	-0.010031376072801102
54	0xbf92cdc7dbbacfb1	-0.01836311606048441
55	0xbfa3c560cd5d21f8	-0.03861525065309829
56	0xbf74158734b63375	-0.0049033433418913435
57	0x3f9288c284e0af04	0.018099822387894995
58	0xbf852932b24eaf58	-0.010332485262402422
59	0xbf9034183556871c	-0.015823724990361318
60	0x3f8326421e9f6088	0.009350315627600261
61	0x3f6d58f1cf2d4552	0.003582451137312739
62	0xbf73b0e53b22c286	-0.004807372506704715
63	0xbf971af9e0ca8eb2	-0.022563843102615784
64	0xbf758527440bb153	-0.005253938085598558
65	0xbfa3562be6ef9a10	-0.03776681131403248
66	0xbf72cf6ab50d9e56	-0.004592339348938509
67	0xbfa39881c66eec09	-0.038272910569013226
68	0x3fa248e5a0f176ba	0.03571240987433329
69	0xbf48dedaa51f2f20	-0.0007589881517957343
70	0xbf6528c703d5edbc	-0.0025829207431209127
71	0xbf8e5dc2ef3ff27c	-0.0148272732985728
72	0x3f6d8c44501fc40c	0.003606923507498033
73	0x3f69a7147ecf43bc	0.0031314277934843798
74	0xbf9a1bfb851d3f6e	-0.025497369765900606
75	0x3f7bf95135b6b886	0.0068295643099373134
76	0x3f8c642870b53481	0.013862911166734772
77	0xbf9901f40dab6121	-0.024421513876263682
78	0xbf88f8a059fc94e9	-0.012192967172789131
79	0xbf8bea8cd7844e64	-0.013630962683726718
80	0xbf7d7de7522a9252	-0.007200149152286688
81	0xbf9202645f392bfd	-0.01758725005337779
82	0xbf749cd916497ee4	-0.005032394405674021
83	0x3fa594e102ed6fba	0.042151481253966464
84	0x3f7ad367ae614bfc	0.006549267773226394
85	0x3f72eec2c2cbb9de	0.004622231278274628
86	0x3f832a5a8b9926f1	0.009358127007675661
87	0x3f9340dca0fa5de2	0.018802115750615196
88	0x3f79bdce314dbede	0.006284528198065435
89	0x3fa71bf4b8617487	0.04513516188374305
90	0x3f92b44629f66156	0.018265816031630543
91	0xbfa90b346ee1802a	-0.04891361096883913
92	0xbf53ec241995451e	-0.0012159683741013792
93	0xbf92e446a912fa3a	-0.018448928899255736
94	0xbf76848d25d33183	-0.005497504576123527
95	0xbf9e6ad6ce9a56f8	-0.02970443378452267
96	0xbf83e8401f30a573	-0.00972032637771989
97	0x3f93571c10eeaa8e	0.018886984380211795
98	0xbfac5bd4f96eb96a	-0.055388122032456646
99	0x3f8f99db09629de6	0.015430175041116944
100	0xbf983ed4730dd46c	-0.023677176973667377
101	0xbf8ed8dc470e8da8	-0.01506206600044531
102	0x3f7b20f2de994173	0.006623219212613984
103	0xbf90f27350da6201	-0.016549875078085922
104	0x3f79c965a0104bd6	0.006295582746150571
105	0x3f90bc16d9792be6	0.016342503570097387
106	0xbf98feab3e2982da	-0.024408984822346415
107	0xbf8f4e4c91ad0f03	-0.015286062427214647
108	0xbfa2c2b6caf931a3	-0.03664180019095233
109	0x3f86881145c97d32	0.011001715605003601
110	0x3fa0fbb0b8834c79	0.033170244716210946
111	0xbf8c3973954d0cfd	-0.013781455034069351
112	0xbf858461b5f50809	-0.010506404271499308
113	0x3f9a1cc0da18d8f0	0.025500310241306445
114	0xbf847640f0de5453	-0.009991175986025313
115	0x3fae537df4befd96	0.05923074352858319
116	0xbf55e5217db4be16	-0.0013363673268250767
117	0xbf9487f77c67a77e	-0.02004992195899246
118	0x3f7769db66cd7f06	0.0057161875127744784
119	0xbf95d45ed57d64ef	-0.021317941456207853
120	0x3f8c9614b6221f4d	0.01395813160731021
121	0x3f88c0a16258602d	0.012086163343198642
122	0x3f81c3c8449f7833	0.00867420634670788
123	0xbf7155ec2c156889	-0.004232332751906162
124	0xbf618243fefbbb3d	-0.0021373107955392754
125	0x3f56f21750435d16	0.0014004924460573934
126	0xbf91917fce6e8c75	-0.017156598066901247
127	0xbf973fb7f4869ebe	-0.022704004573511176
128	0xbf935fab651df956	-0.018919637724587567
129	0xbf950268cad9b434	-0.020517003422743055
130	0x3f7b7d43964b8712	0.0067112579460813105
131	0xbf7b16f5cf2a572a	-0.006613693420737291
132	0xbfa3e3995f1da0a5	-0.038845818386847676
133	0xbfa85cd7f944cbdb	-0.04758334081488843
134	0x3fa33f59bbb07232	0.03759270111206482
135	0x3f8927e29dbc5f3c	0.012283106268611392
136	0x3f9b5226c4027180	0.02668057032916371
137	0xbf6113b26d160ec6	-0.0020845875630487202
138	0xbf945f1584ff466e	-0.019893966906073528
139	0x3fa36b77cd4bd389	0.037929290590830674
140	0x3f96ae9c68834d3f	0.022150462988816285
141	0xbf79dbeb1919a406	-0.006313246108768494
142	0x3f8bad1e9d9bcd3a	0.01351379316790845
143	0x3f85d8869d94fe52	0.010666896518727462
144	0xbf7f237f4205feb0	-0.0076022120487092976
145	0x3f579022db7ea50a	0.0014381733326252499
146	0x3f9d2f864c2d37b6	0.028501604461147877
147	0x3fb4fd75dca3318b	0.08199249874741647
148	0x3fafe5b673238fea	0.06229944377426462
149	0x3f69b1237d59129e	0.003136224094108477
150	0x3f68c1daea1197f0	0.0030221248312498547
151	0xbf72a7537d94734b	-0.004554105887362446
152	0xbfa7e35c50d64738	-0.04665649878292161
153	0xbfae1ac9eccf2d9e	-0.05879813209284211
154	0xbfac2c7eb7b1d9d0	-0.05502696983687694
155	0xbf9df63fe64dbe62	-0.02925968020593784
156	0xbf98e7fd0fe0fc76	-0.024322465986412266
157	0xbf7b29eb9be81526	-0.006631775233932024
158	0x3f86c52b938b236b	0.011118259849711007
159	0x3f841dbb6c351b14	0.009822334518174304
160	0xbf98353584dc431d	-0.023640476450114457
161	0x3fa308f5110da588	0.037177713710501215
162	0x3f8edf57dcceb8ca	0.015074430871973372
163	0x3f741aeb23e03ee0	0.004908483997510621
164	0x3f8921bcf45c2f08	0.01227138157584974
165	0x3f95ed3bf3e0cb14	0.021412789116037237
166	0x3f324fcb37d8bd1a	0.00027941428547513666
167	0xbf817bf336401d85	-0.008537197201816902
168	0x3f9f157c27526c46	0.030355396175405745
169	0x3fa9c8bf765f9958	0.05035970993030742
170	0x3f960193b8342ea9	0.021490390890035602
171	0x3f7b1cbd6013f9ce	0.006619205233845139
172	0x3f7d0eceab05345d	0.007094199463904519
173	0x3f46c372190396a3	0.0006946856610993878
174	0xbf95939a0aaad719	-0.021070868397791907
175	0x3f607732bb7decfb	0.002009963118266731
176	0xbf9d75f872a660fb	-0.02877033424155771
177	0x3f932a50d6b1b34e	0.01871610937489559
178	0xbf91fdcb14bb1182	-0.01756970705061312
179	0xbf97ffbc623c5514	-0.023436492439107573
180	0xbfa880437735e791	-0.04785357313353623
181	0xbf624376cae60b13	-0.0022294349830088793
182	0x3f73805a8c7e215a	0.00476107950806467
183	0x3f9852b00741cb6f	0.023752928202564968
184	0x3f8b26ad59e34f90	0.013257364564573298
185	0xbf994c90c3874830	-0.024706136640652854
186	0x3f6eedc983eae45b	0.003775495132995616
187	0x3f614cd09750d147	0.0021118234676810485
188	0x3fac1d33b446d540	0.054910293346817074
189	0xbf94639240f045aa	-0.01991108437875303
190	0xbf82db08c50e732b	-0.009206837190328073
191	0xbf7e1430db8b8cfa	-0.0073434742450644245
192	0x3f99271bdc173d06	0.024563250835680804
193	0xbf85a596d052b159	-0.010569742424501415
194	0xbf93f2a63786ae32	-0.019480321063083568
195	0xbf9476954a4219bd	-0.019983608872758064
196	0xbf909ff5a1985baa	-0.016235197055802487
197	0x3f77af00cdba3e90	0.005782130374100483
198	0x3f94b7b2ef8cbb65	0.020232005949931593
199	0x3f882818fa8d4b4e	0.011795230051267726
200	0xbf6430efb1e70536	-0.0024647409001949073
201	0xbf79ad18e033c21e	-0.0062685939512765725
202	0xbf775c39408272fa	-0.005703185692394136
203	0x3f7722fb253b2966	0.005648594891406544
204	0xbf938ecc585e8582	-0.01909941949236816
205	0x3f8b50b264589c10	0.013337510764428046
206	0x3f52db98cba1a22a	0.001150988783161231
207	0x3f805b904e808b0e	0.007987143893904338
208	0xbf650933db057e3b	-0.0025678646854172794
209	0x3f7029c97b6d11cb	0.003946101226408104
210	0xbf70e4a9971657ed	-0.004124319516810343
211	0xbf76519af0f084d6	-0.00544891857046644
212	0x3fa02f4e0395e92b	0.0316109065415325
213	0x3f98d73227daadd2	0.024258407289989688
214	0x3f915626bd64209f	0.01693020373298337
215	0x3f847d61a28d799e	0.010004771016323851
216	0x3fa5684172980fdc	0.04181103252270166
217	0x3fa4399a0906318c	0.03950196609648335
218	0x3f6c3924c360bfb6	0.0034452169448044535
219	0xbf8408e3c84bfbf9	-0.009782580900262504
220	0x3f975046f2cbf868	0.022767170495164996
221	0xbf7f3e4aac6ce79d	-0.007627765363219211
222	0x3f465e99c31c55ab	0.0006826639930489949
223	0x3f925b827d19c31c	0.017927206883942323
224	0x3f8af7409f6123ca	0.01316690908801545
225	0xbf82d9e0f6be596e	-0.00920463326455653
226	0xbf82b02f3d78ea86	-0.009125107825743283
227	0x3f966382c4d40037	0.021863978637157024
228	0xbf68b8f46b4d800a	-0.003017880803255939
229	0x3fa2645872103175	0.035921825336205616
230	0x3fa03b0c5c4400ce	0.03170050264634626
231	0x3f972e6fe6111704	0.02263808099475907
232	0xbf963efcba40e9f5	-0.02172465216447424
233	0xbf9666b0442d87aa	-0.02187610069393712
234	0xbf914ad842559d34	-0.016887072609646128
235	0xbf60536139f40d03	-0.0019928835823762605
236	0x3f701a7e1588d07e	0.003931515232171388
237	0xbf8e4944adc51862	-0.014788185647045708
238	0x3f9ad741a364d140	0.026211762998358923
239	0xbf8db60fbe33e7e0	-0.014507410995509618
240	0xbf40bf38280fbe60	-0.00051107637420773
241	0xbfa4091c06d3d1a0	-0.039131999810624096
242	0xbf5fd1724c01a5ab	-0.0019420257740655293
243	0x3f9099bba34e6dfb	0.016211444704465432
244	0xbf86ffc4ed49d090	-0.011230028621163762
245	0xbf52dcd56200044a	-0.001151283628132898
246	0xbf8970051b56860a	-0.012420692345418
247	0xbf9eb69854b3f6c3	-0.029993419809207788
248	0xbf80cba12210232a	-0.008200892307301883
249	0x3f8b12c498ba8e66	0.013219390784178841
250	0xbf757a58c5302ab2	-0.0052436320866130915
251	0x3f9642a11557f405	0.02173854534884258
252	0x3f81ba340c990652	0.008655935892537023
253	0xbf90dfc4b386ef3a	-0.01647860856768022
254	0xbf54c526a5b1e827	-0.0012677075781355547
255	0x3f84114852b9996d	0.009798588776175088
