results/vision_only/S1/old/layer8_correlations.npy (npy, 649016 bytes, 1 tensors)

array f8 [81111]
0.024475303672564525 0.04056945644939939 0.01132508305211862 -0.013244083306441704 -0.041780500284706555 0.014452391614516577 0.05284160551511579 0.06253827295990454
-0.04168694189283997 0.033834895864129064 0.07012866856530309 0.015858044335618614 -0.04125654650852084 -0.060009459313005206 0.015187262557446957 0.039511341963791184
-0.03281112149771717 0.04321205636693372 0.04193623177707195 -0.023975860482702654 0.036807747557759285 -0.027521934256785445 0.017791525461588107 -0.020264323614537717
-0.018383214468485676 0.01314665501122363 0.0023964913096278908 0.011828341661021114 0.0022833961993455887 -0.021587608210716605 -0.0074787695581714315 0.009570167813864019
-0.010691754726899995 -0.005105459170105557 -0.059672624985170036 0.003403816385091179 0.00663417721969179 -0.03848025440755817 -0.018175031368931133 -0.019391028107040457
-0.03732621338632372 0.01963769442712267 -0.040602846898966365 -0.021978629752993584 0.057156816538837224 0.007328518355886142 -0.013288466880718866 0.045524523903926216
-0.041101422160863876 0.027469027063084975 -0.030732077776014596 -0.01272038732551866 -0.012005610533783006 0.009821716799504228 -0.026507829108999834 0.015540584611395994
0.05988175866918431 0.006446241659836637 0.049324327872859106 0.02165558251241843 0.0057721818383369185 -0.025048755574971437 0.00207929861628347 -0.014102698484849598
-0.019701203279611137 -0.003441592781907982 -0.004230848578218784 0.027497590002086427 -0.0014767449594930643 -0.006436829429326786 0.016589626152482297 0.02023731986992061
0.006485343496832583 0.00075416908495956 -0.012309853297968706 0.04016293082127555 0.005291348090395331 -0.027897963096620515 -0.001477296813391149 -0.005893706666029175
-0.0020755804143846035 0.028563097857841058 0.016704690038750414 -0.0807433680165559 -0.023708821507170796 -0.007786260452121496 0.018071207217872143 -0.00038990990903515083
-0.02223116365404656 0.008730235079733225 0.006789419119461224 0.0076126840699893925 -0.013752220341792474 0.03172236437407824 -0.0035252198935128176 0.015579157688010197
-0.06235293972377594 0.03237698048066635 -0.010689544204909068 -0.0007440515149098176 0.021424376119214755 -0.008156962191256193 0.0029824147753130933 -0.004118367362445077
0.012212550070566626 0.00842867841800818 0.00029536236364107864 -0.023828768672851417 0.03895192030960551 0.03205660896268315 0.0025141598800053964 -0.011063017792856464
0.013000689446926117 -0.01827912577069723 -0.018113229638681963 0.030239750429665528 0.01468480162573262 0.027238628504654534 -0.006417561089619994 -0.005571151597765633
0.021273288105686124 0.017643803282855794 -0.013296904758765148 0.0038818550439408193 0.00985410064458847 0.0387850204984156 0.01658931107690128 0.019634246550804865
0.009178417949722363 0.02461543815353742 0.05363283922465948 -0.021815182641148567 0.004011369274499325 -0.007818367654600969 0.010760937674114337 -0.024803463871089313
0.015311478780439267 0.03221549247301972 0.02879572441228307 0.0007948931306600571 0.02015297032462863 0.011963356787768694 0.029423282745903216 0.014868129832813373
-0.005704396261045566 -0.024000442443558805 0.00048081852638950717 0.015396918416417275 -0.006814271838475878 0.01939806462122271 0.0065413754827414565 -0.025066857082912557
-0.041162378047234736 0.010518462468798343 -0.010160292633092748 -0.028854254364537504 -0.006929897488309787 -0.019532383276292913 0.0011518605483266024 -0.008829534161262788
0.017650094689228214 -0.02920433346522399 0.029705154799068205 0.019682676459734257 -0.03332532496334842 -0.01443987271676843 -0.004428802846142879 -0.012044495043273155
-0.0061828107214891 0.0003941556653724267 0.0214668011579376 0.032009957161230534 0.013113120284218054 -0.006087281777021976 0.010969520300232734 0.014918184695908656
0.044585265434132174 0.012198085968311016 0.03284893804587997 0.007806019463504736 0.0129991124312465 0.004403146986777966 -0.010438475686197098 0.01717684056180028
0.036970705116310947 0.012982452933031779 -0.03763797902725995 -0.008209517010702537 0.03428535271758357 0.018168683235461894 0.01118064575488321 0.0007645251372685799
-0.03891110276946655 -0.039557935237938255 0.01063019990061338 0.0160781775529568 0.02013633939294288 -0.03331386847108101 -0.004330936640214462 -0.0021146675213598288
-0.017374640993344095 0.014688283455773042 -0.005998667938491473 0.03682843713949506 0.02408727553064147 0.009158819985504333 0.02954176640532051 -0.007699481032502193
0.026459748319421824 0.029318487128386132 0.0249198918732313 0.0015708055759135347 -0.02644226807527817 -0.006388754010773622 0.012907829601317644 0.0017007703964526837
-0.0010491134957052194 0.013048465184580822 -0.0029341537738218904 -0.01866630636728727 -0.03392173627463098 -0.0073261982940423945 -0.006557331812263538 -0.011796391013866434
-0.0038665994786872314 -0.0041892811333617335 -0.009340891865297006 0.02621375647588418 0.0012390102761296125 0.01689228254298751 0.0018016385818974902 0.00947978225751565
-0.025315349348462544 0.0075900965871719215 0.015396663775810828 0.011896197522918765 0.018916679940258082 0.014122279405665513 0.0010295523366389365 0.02486797535003951
-0.0026142155536665367 0.02634049215927147 -0.027316020640472952 0.002882042326606237 -0.0013482644303271978 -0.028077184128610846 -0.009611527274291102 -0.011662100782044806
0.00851714711349744 -0.022856246035259504 0.009607048472389579 0.0041723567276046826 0.012564834521002082 0.010024802633919395 -0.017441909187115155 -0.0016510518930422573
00000000: 5555 55d3 0d10 993f 5555 5511 85c5 a43f
00000010: abaa aaea 9a31 873f 5555 55c5 b61f 8bbf
00000020: abaa aaf4 4064 a5bf abaa aa2a 3799 8d3f
00000030: c771 1c0f 0e0e ab3f c771 1c1d 8202 b03f
00000040: 3333 33a8 fd57 a5bf 6666 66b6 ce52 a13f
00000050: 0000 00d2 f3f3 b13f 3333 3357 173d 903f
00000060: 0000 00fc 931f a5bf 6666 6652 8fb9 aebf
00000070: 0000 00e0 7f1a 8f3f c771 1ca3 d43a a43f
00000080: e438 8e8b 9ecc a0bf 721c c701 e41f a63f
00000090: 0000 0070 aa78 a53f abaa aac2 208d 98bf
000000a0: 0000 0010 77d8 a23f 8ee3 38be b52e 9cbf
000000b0: 398e 0310 f137 923f cdcc ccbc 2bc0 94bf
000000c0: 0000 c0a3 0cd3 92bf 9a99 992a a2ec 8a3f
000000d0: 9a99 9979 cea1 633f cdcc cc24 7539 883f
000000e0: 0000 0000 a1b4 623f e438 0edd 0f1b 96bf
000000f0: abaa aaea 0ea2 7ebf 8ee3 382e 8699 833f
00000100: c771 1c07 8fe5 85bf abaa aa42 76e9 74bf
00000110: e438 8e09 698d aebf 721c c701 52e2 6b3f
00000120: c771 1c63 702c 7b3f 1cc7 7114 afb3 a3bf
00000130: 5555 55b5 799c 92bf 8ee3 38de 3ddb 93bf
00000140: e438 8ee3 6b1c a3bf 5555 555d e71b 943f
00000150: c771 1c77 e5c9 a4bf 0000 00e0 9081 96bf
00000160: e438 8e83 a843 ad3f abaa aa2a 8204 7e3f
00000170: 5555 55d5 fb36 8bbf abaa aa8a fd4e a73f
00000180: 0000 00e0 3e0b a5bf e438 8e33 d720 9c3f
00000190: 1cc7 f1d3 3a78 9fbf 1cc7 717c 250d 8abf
000001a0: 398e e3c4 6596 88bf e438 8e83 681d 843f
000001b0: 1cc7 714c de24 9bbf 5555 55f5 bdd3 8f3f
000001c0: 8ee3 3866 d2a8 ae3f 721c c7d1 5f67 7a3f
000001d0: 8ee3 38ce 0941 a93f abaa aa8a e12c 963f
000001e0: e438 8e43 92a4 773f 0000 0088 61a6 99bf
000001f0: 721c c7f1 9a08 613f 8ee3 3826 e0e1 8cbf
00000200: c771 1c5f 8d2c 94bf 8ee3 380e 8b31 6cbf
00000210: 1cc7 71c4 5d54 71bf c771 1c07 5428 9c3f
00000220: e438 8ed3 ea31 58bf 8ee3 383e 815d 7abf
00000230: c771 1cf7 defc 903f 0000 008c 17b9 943f
00000240: e438 8e23 6090 7a3f c771 1cc7 6db6 483f
00000250: abaa aa8a e835 89bf 721c c754 3c90 a43f
00000260: 0000 0070 61ac 753f 0000 809c 4891 9cbf
00000270: 0000 0060 3b34 58bf 0000 20d6 ff23 78bf
00000280: 0000 00c0 ce00 61bf 0000 b00c a53f 9d3f
00000290: 0000 a0c5 081b 913f 0000 00ed 98ab b4bf
000002a0: 0000 0014 2047 98bf 0000 0060 7ce4 7fbf
000002b0: 0000 0030 4281 923f 4fec c44e 9a8d 39bf
000002c0: 2776 6223 c4c3 96bf b113 3b51 28e1 813f
000002d0: b113 3bd1 38cf 7b3f 8a9d d851 7a2e 7f3f
000002e0: c54e ecc4 1f2a 8cbf 3bb1 13eb e93d a03f
000002f0: c54e ec04 ece0 6cbf 7662 2726 f7e7 8f3f
00000300: 8a9d d879 b9ec afbf d989 9d30 b793 a03f
00000310: 7662 2756 66e4 85bf 7662 2776 8e61 48bf
00000320: 3bb1 138b 45f0 953f 4fec c4ee 98b4 80bf
00000330: 9ed8 89bd 936e 683f 7662 27d2 6bde 70bf
00000340: b113 3bb9 e402 893f b113 3b11 0e43 813f
00000350: b113 3bb1 5b5b 333f d989 9d98 9166 98bf
00000360: 143b b18f 81f1 a33f b113 3b4e b969 a03f
00000370: 4fec c44e 9398 643f c54e ec1c 35a8 86bf
00000380: 0000 0000 1ba0 8a3f 9ed8 895d c3b7 92bf
00000390: 143b b143 468c 92bf 9ed8 894c 2bf7 9e3f
000003a0: 8a9d d8b5 1013 8e3f 6227 766a 71e4 9b3f
000003b0: 0000 00f0 4c49 7abf d989 9d9e c6d1 76bf
000003c0: 4fec c432 aac8 953f ecc4 4e98 3711 923f
000003d0: d989 9d58 683b 8bbf 4fec c40e d7cc 6f3f
000003e0: 0000 0000 632e 843f b113 3b55 a1db a33f
000003f0: 7662 27d2 c9fc 903f 4fec 44fb ff1a 943f
00000400: 2776 6267 22cc 823f 2776 6217 ca34 993f
00000410: c54e ec74 c375 ab3f 0000 0020 b856 96bf
00000420: 9ed8 89bd 396e 703f 3bb1 138b 1303 80bf
00000430: 3bb1 139b d409 863f d989 9d48 1466 99bf
00000440: c54e ece4 9f5b 8f3f 143b 318d 8c7e a03f
00000450: 6227 765a a07c 9d3f 0000 0000 0c0c 4a3f
00000460: 8a9d d8f1 faa2 943f b113 3b91 3e80 883f
00000470: 9ed8 8914 2321 9e3f 3bb1 139b 2e73 8e3f
00000480: 7662 2736 7e5d 77bf 9ed8 896d 9293 98bf
00000490: d989 9dd8 cb82 3f3f 6227 7668 6b88 8f3f
000004a0: 3bb1 132b 48e9 7bbf d989 9d14 16dd 933f
000004b0: ecc4 4e1c 21cb 7a3f 9ed8 894d 20ab 99bf
000004c0: 3bb1 1337 3c13 a5bf 6227 7622 b48a 853f
000004d0: d989 9d64 ebce 84bf 2776 623b f88b 9dbf
000004e0: b113 3b31 8662 7cbf 9ed8 890d 4c00 94bf
000004f0: d989 9dd8 40df 523f 143b b103 3815 82bf
00000500: 8a9d d8cd dd12 923f 9ed8 89a4 bde7 9dbf
00000510: 9ed8 8931 076b 9e3f 4fec c40e b227 943f
00000520: 143b b159 0410 a1bf d989 9de8 a692 8dbf
00000530: 7662 27b6 ef23 72bf 6227 76c2 c8aa 88bf
00000540: 9ed8 899d 2553 79bf b113 3bb1 d5d4 393f
00000550: 143b b1a3 64fb 953f ecc4 4eee 9b63 a03f
00000560: 7662 2736 0ddb 8a3f 6227 7642 faee 78bf
00000570: 9ed8 8917 3077 863f 3bb1 13db 6c8d 8e3f
00000580: 8a9d d841 e1d3 a63f 6227 7662 4ffb 883f
00000590: b113 3b75 93d1 a03f c54e ec64 34f9 7f3f
000005a0: 7662 2756 479f 8a3f c54e ecc4 0809 723f
000005b0: 9ed8 897d c460 85bf 8a9d d841 ce96 913f
000005c0: 4fec c402 d3ed a23f 7662 2756 8b96 8a3f
000005d0: 4fec 0402 4945 a3bf d989 9db8 26d0 80bf
000005e0: ecc4 4e89 d98d a13f b113 3bb1 cf9a 923f
000005f0: c54e ecde e0e5 863f 3bb1 133b 4d0d 493f
00000600: 143b b1f3 27ec a3bf 9ed8 490c f040 a4bf
00000610: 2776 6247 49c5 853f 3bb1 133b cc76 903f
00000620: d989 9ddc 9e9e 943f c54e 2cef 830e a1bf
00000630: 143b b1f3 50bd 71bf 3bb1 137b c752 61bf
00000640: 2776 626b a8ca 91bf d989 9d08 e414 8e3f
00000650: 8a9d d829 0f92 78bf 7662 274a 2ddb a23f
00000660: d989 9db2 55aa 983f 6227 7602 dcc1 823f
00000670: ecc4 4e62 3240 9e3f 143b b1b3 7d89 7fbf
00000680: 4fec c4a6 4318 9b3f 9ed8 895d aa05 9e3f
00000690: 6227 76a2 9984 993f c54e eca4 6fbc 593f
000006a0: 6227 7692 ae13 9bbf d989 9d18 182b 7abf
000006b0: 0000 0090 6b6f 8a3f 4fec c44e 8cdd 5b3f
000006c0: 8a9d d809 4d30 51bf 8a9d d859 27b9 8a3f
000006d0: 0000 00d0 5d09 68bf 9ed8 899d 421d 93bf
000006e0: 8a9d d897 305e a1bf b113 3b61 1302 7ebf
000006f0: c54e ec5a dcdb 7abf c54e eccc b428 88bf
00000700: 8a9d d8c9 d8ac 6fbf 2776 6297 c728 71bf
00000710: d989 9d48 5121 83bf 3bb1 136b c7d7 9a3f
00000720: 2776 6227 c94c 543f ecc4 4ee4 354c 913f
00000730: 6227 76b2 9e84 5d3f 7662 27d6 226a 833f
00000740: 7662 2756 44ec 99bf 8a9d d809 cb16 7f3f
00000750: 3bb1 133b 4988 8f3f 6227 769a 085d 883f
00000760: 4fec c4e6 e45e 933f 9ed8 8941 24ec 8c3f
00000770: 2776 6267 41de 503f 2776 6293 fd76 993f
00000780: 8a9d d849 686a 65bf 9ed8 8981 00f9 9a3f
00000790: b113 3b1d bbf8 9bbf b113 3bb1 149c 673f
000007a0: d989 9de8 0717 56bf 2776 62ee 43c0 9cbf
000007b0: 6227 765a 35af 83bf 143b b1ab 4ce2 87bf
000007c0: 6227 7622 7071 813f c54e ecb4 a067 97bf
000007d0: 0000 0038 dcac 833f 3bb1 137b 0817 713f
000007e0: 7662 c78a 97bb 893f 143b b13b e287 843f
000007f0: 7662 27b6 4adc 91bf d989 9d78 030d 5bbf
