results/movie_to_story/S1/layer8_correlations.npy (npy, 649016 bytes, 1 tensors)

array f8 [81111]
0	0xbf591551cc1ae7f2	-0.001530961876069711
1	0xbf95bdc982d77619	-0.02123179303258924
2	0xbf8d2d3f2db38ef0	-0.01424645765513996
3	0xbfa31fb84f087d0c	-0.03735137905845862
4	0xbfa95b646d2cf85f	-0.04952539284430268
5	0x3f9736703945c31f	0.02266860341609622
6	0xbf86469d1f7ffadb	-0.010876872562218967
7	0xbf7be273a36387e7	-0.006807758056511993
8	0x3f949e388304f1e6	0.02013481425932353
9	0x3f744563190904a3	0.00494898519588208
10	0xbf66b90964b45080	-0.0027737792457945276
11	0x3ea9added6072000	7.652992444701426e-07
12	0xbfa6711ff8f117fd	-0.043831824434661805
13	0xbf97c6002cc3a113	-0.02321625016421176
14	0xbf7a616aa787a024	-0.006440559977342306
15	0x3f849545c328ee24	0.010050339716250418
16	0xbf95ce16032f6351	-0.02129396814766277
17	0x3f81728731603d2a	0.00851922625955
18	0x3f4ef465101eb8dc	0.0009446614715125329
19	0xbf9ba608fff51f9b	-0.027000561354071455
20	0x3f8c8e0c8fa6255b	0.013942812093562898
21	0x3f871bb35cb75424	0.011283303515407246
22	0xbf80ea54cc8879b2	-0.008259451381545133
23	0x3f387c6fc00878e0	0.00037362793230667594
24	0xbf966243c1da9daa	-0.02185922499361729
25	0x3f5d474e01b28638	0.0017870198997019925
26	0x3f88e4ed1a110aaa	0.012155392034519725
27	0xbf8586ed9d62afe2	-0.010511261334919145
28	0x3f7b182def6d2c1b	0.006614856180770646
29	0x3f89f3f98f6857a4	0.012672376336052178
30	0x3f8ff318efdc75f7	0.015600390262586734
31	0xbf96a9331c38e818	-0.022129820439865083
32	0x3f7aea246736007f	0.00657095165240673
33	0x3faa6bb719400cbe	0.05160305197935021
34	0xbf720a358363173b	-0.0044042673454834326
35	0xbf8a6f7b7dcbfc4a	-0.012907948280824883
36	0x3f3efcc0dd1ef460	0.00047282894695028187
37	0x3f64115b48b145f9	0.0024496825113053925
38	0xbf9a7341b72d4d87	-0.025830294423327096
39	0xbf9c1bfbe0c8623d	-0.027450500101709564
40	0x3f84ff4e5acf8386	0.010252582689590072
41	0xbf8c761e57ce8b79	-0.01389716821160446
42	0x3f705533784bf87a	0.0039875040572480095
43	0xbf94565fc0ec74ac	-0.019860740804791874
44	0x3f95f29a7a1365b5	0.021433271122850168
45	0xbf8f50d0882fb7b0	-0.015290860324934957
46	0x3f8037ee3642cc2c	0.007919178992187602
47	0x3f8cc146d1aeccf5	0.014040520929347692
48	0xbf7c51be84bcf52c	-0.006913894856379426
49	0xbf8a980e6a75b959	-0.012985336898705556
50	0x3f8b492233fd9e46	0.013323085033064019
51	0xbf6e5f8fcc24ea6e	-0.0037076767486301987
52	0x3f3815c1922b1aa4	0.00036750770429387126
53	0xbf81f4796610a0ee	-0.008767078807139641
54	0xbf884bf4bdaed06a	-0.011863624609624607
55	0xbf9d19d4b97dcf72	-0.028418849774836948
56	0xbfa404d67e325f67	-0.03909940996635335
57	0xbf6df4d8d30a0f55	-0.0036567911959667723
58	0x3f674166acf9ac45	0.0028388028511492657
59	0xbf9a1bf62f547444	-0.025497290266788278
60	0x3f74067fa6b5cb06	0.004889010083718009
61	0x3f60a587b49eb6f0	0.0020320559023819726
62	0xbf8288a450d05a55	-0.00904968616127381
63	0xbf77f13467fea0d8	-0.005845265113670638
64	0xbf80de900a06c9a8	-0.008237004571900311
65	0x3f238fb2de3b1a00	0.00014924105118137299
66	0x3f7279965a8244ac	0.004510485952907189
67	0x3f9377cab5825c50	0.019011657074397725
68	0xbf87c8044934f907	-0.011611970409486817
69	0x3f99f3839ca1ae7e	0.025342995104820513
70	0x3f63997be76ad3b4	0.0023925228118408474
71	0xbfa372c7b2fee154	-0.03798507747655103
72	0x3f85cf1211426cda	0.010648862029759721
73	0x3f67990aedd7fa69	0.0028805936296969936
74	0x3f50219e93221f40	0.0009845779973449292
75	0x3f4411917698904b	0.0006124458570338024
76	0x3f859dff4fa73abb	0.010555262201618168
77	0x3f9621b35f689356	0.021612932871124833
78	0x3f9175b8080808a0	0.01705062436122573
79	0x3f5eac519843b710	0.0018721386741690806
80	0x3f8dd2988ba018f6	0.01456183601477477
81	0xbfa38c99b33eb037	-0.03818207085655028
82	0x3f79c9c11f583b30	0.006295923599749995
83	0xbf7f9c584187e143	-0.007717461347504009
84	0xbf799823072b35ba	-0.0062486046105737995
85	0x3f82f7a3e88ca460	0.009261398825019806
86	0xbf9fb3f0462190ae	-0.030959848671401495
87	0xbf9288ccafcabae2	-0.018099973897444672
88	0xbf8467c76955c6be	-0.009963567640372314
89	0xbf9cebc66b8c4d42	-0.028243160547458908
90	0x3f72d905f84f5ae8	0.0046015008164974405
91	0x3f917f73980d9412	0.017087751536923497
92	0xbfa24701fcc06de4	-0.035697996238208934
93	0x3f62cd4b55c553c3	0.0022951575648826063
94	0xbf8db21d95349cb2	-0.014499884715929976
95	0x3f9536d29a59c868	0.020716944380588492
96	0x3f7735a5ef778ffb	0.005666397271372854
97	0xbf74ac3318030676	-0.005047034821645027
98	0x3f9ccf71327aacc0	0.028135079103475347
99	0xbf243eb2fdf59596	-0.00015445647202764746
100	0x3f9206a19ade469e	0.017603421285065417
101	0x3f7ac80beb580f82	0.006538435516180276
102	0x3f9c85df40e00db2	0.02785443147150852
103	0x3f955d08e910de68	0.020862712121213184
104	0xbf487de3bb735cc8	-0.0007474290822767843
105	0xbf53462a7ad07d7d	-0.0011763968316314815
106	0x3fa477f02c1799f6	0.039977555639598636
107	0xbf9f2e4b5ac909c5	-0.030450036445708557
108	0xbfa59e76c8834785	-0.04222460935274256
109	0x3f95389dda2c7c85	0.02072378772856755
110	0xbf77001427e6c3f5	-0.005615309461448161
111	0x3f93415307d32456	0.01880388007410646
112	0xbf8efa0d257738de	-0.0151253726061466
113	0x3f89ab5552d747d5	0.012533823576550343
114	0x3faf894d9125b0fd	0.061594413726966814
115	0x3f99d8d2b19f4823	0.025241176692198174
116	0xbf8285ab86945752	-0.009044017834223848
117	0xbf93457e5c5db422	-0.018819784534049096
118	0x3f878a380df84556	0.011494100500416476
119	0xbf7337dc0fa7923c	-0.004691943754072055
120	0xbf9635bbdc9dc852	-0.021689353313782363
121	0x3fa24a686f0190ba	0.035723937559653376
122	0x3f7c7c846b5f72d5	0.006954686416034324
123	0xbf32f950ffeb0b40	-0.00028951861888175737
124	0xbf98abc4b1920062	-0.024092744195968747
125	0xbf71f450a6fece25	-0.0043833876115289315
126	0x3f8e6323dabc8e93	0.01483753215104081
127	0x3f90acb1a8f5fd8d	0.016283775270037593
128	0xbf8b79cafb683a40	-0.013415895268761635
129	0xbfa1f4c1de2afb37	-0.03507047497759291
130	0x3fa0bae135fe2f94	0.03267577919095213
131	0xbf925a8a2d3491a0	-0.017923506745448514
132	0x3f7b34ecd6a031ca	0.006642270231179423
133	0x3f8527df6adea412	0.01032995743647017
134	0x3f873c265c2b5548	0.011345195472510242
135	0x3fa811c69601576e	0.04701061802977234
136	0xbf765f4534f4f77f	-0.005461950625713529
137	0xbf9fe11be2caac7b	-0.0311321599171319
138	0xbfa06d52c785ff26	-0.03208407102192572
139	0xbf8343bedc5c6b95	-0.009406558132061519
140	0x3f757264800c639a	0.005236046389449545
141	0xbf8e7ca73748d3ee	-0.01488619458641868
142	0x3f8a0c02e3aea8c3	0.012718222211180913
143	0xbf8263daf10fe7bb	-0.008979521257049919
144	0xbf94f0e9a96dc492	-0.02045025917636118
145	0x3f51c142a7d8b5e6	0.001083674519928629
146	0x3f96fdb21c8f61d1	0.02245214747731145
147	0xbf9b69191e5166b3	-0.02676810500665878
148	0xbf839ec9a650dd3a	-0.009580207241113404
149	0xbf372616bbc8f166	-0.00035322241800252727
150	0x3f86e95d43e4f152	0.011187294611425234
151	0x3f80050e37309cfd	0.00782214265752978
152	0x3f6cd8c865286c5b	0.0035213388412223385
153	0x3f689edc4fa65e8a	0.003005438132458076
154	0x3fa13cb2562416f2	0.03366620351338935
155	0xbf9245e6d19289cf	-0.017844778577122796
156	0xbf75c986eefc88ed	-0.00531914432920842
157	0x3f7fe9acc00860de	0.007791209035097972
158	0xbf6584e1d9363242	-0.002626839742964544
159	0xbfa149161fb6944e	-0.033760730143776216
160	0x3fa49571b96f973c	0.0402026690351662
161	0xbf7c52cf775be0e6	-0.006914911665937695
162	0xbf980d86bd692f8d	-0.023489098845217483
163	0xbf8aa640cd098aa6	-0.013012415177575076
164	0x3f7edcf3b6edb006	0.007534935007111448
165	0x3f6dcfae869b8b0a	0.0036390694339031348
166	0x3f8b321df457343a	0.013279184359726515
167	0xbf9f8540bf97603d	-0.030781757062726667
168	0x3f8fae0d4e19a0b2	0.015468696542669445
169	0x3f7fb5e15735e052	0.00774181388566582
170	0x3f83ba7c3b9f9036	0.00963303620296339
171	0xbf9f99743250983d	-0.030858817645047266
172	0x3f93e1b02fa74396	0.019415619762927237
173	0xbf7df10afb79ef25	-0.007309954547618768
174	0xbf77bc96336de4b8	-0.005795084688423539
175	0xbf6e4ce29fd410c3	-0.0036987711197316877
176	0x3fa55ffea43185fa	0.041748006384988615
177	0x3f6f6bb391d6af60	0.003835535738025017
178	0xbf520edae41b02b3	-0.001102174530771699
179	0x3f93c701cb51e819	0.019313838991799146
180	0x3f81cf21c37f777e	0.008695853975890119
181	0x3fa1a71735a3169a	0.03447792558430969
182	0x3f803c3c2c0e93f9	0.007927389235030434
183	0xbf97132a636e9fe9	-0.02253404838452858
184	0xbf9a1e48cbaf2c08	-0.025506150657559373
185	0xbf88b05b0125fa4e	-0.012055121395630721
186	0xbf96b285a76449f6	-0.022165382711202462
187	0xbf7028d8ee6f69f8	-0.003945205105049691
188	0x3f269c47f1aa478d	0.0001725042173644189
189	0xbf8286e1a7145ba0	-0.009046328460085296
190	0x3f8bc9843c24e576	0.013567956052258561
191	0xbf8d3aa06cc2109a	-0.014271977728874941
192	0xbfa641913278e25a	-0.04346898785701532
193	0xbf97e3f55c979235	-0.023330529953357455
194	0xbf871052b1943f67	-0.011261602443965747
195	0xbf9852aec8837f33	-0.02375290964926009
196	0xbfa452a6336d6caa	-0.03969306352402076
197	0xbf89a08b9bd70f00	-0.012513247197496025
198	0xbf925c020c572f9a	-0.017929107669075607
199	0xbf900c47f87af7a3	-0.015671848813091704
200	0x3f7192a328c934c6	0.004290234891027816
201	0xbf9b797469efd95b	-0.026830500570178866
202	0xbf9c420fec009955	-0.02759575727409332
203	0x3f970fa94f8a84ee	0.02252068088512698
204	0xbf879dd1931b6859	-0.011531483938075281
205	0x3fa380126c65c064	0.03808648656092897
206	0xbf7509fde0f046b0	-0.005136481965580295
207	0x3f99343b2ddd7512	0.02461330859602124
208	0x3fabe0952c0fc2e2	0.05444780505047732
209	0xbfa37a527e845966	-0.038042619651764295
210	0xbf9c69a18b9f39f8	-0.027746700426911602
211	0xbf900e7769eb4163	-0.015680185165196103
212	0xbf97a40340f3a5b2	-0.02308659633573535
213	0xbf9297a8895c8d0e	-0.018156655677683146
214	0xbf9165bbfd426ce7	-0.016989648182612973
215	0x3f8588f17821b64c	0.010515104750278635
216	0xbf8574dc9cdea0db	-0.010476802384645037
217	0xbf9e10fd6ecde758	-0.029361686599691822
218	0xbf85f4c390805555	-0.010720756385164046
219	0x3f7b6cbd997f9feb	0.006695500014735937
220	0x3f97ab1b5fd767ee	0.023113658642479544
221	0xbf63e439a7b0d7d8	-0.0024281622004549246
222	0xbf6adfc728d691d5	-0.003280533774800735
223	0x3f9a5278b636017e	0.025705228921198302
224	0x3f88677f4f06c60f	0.01191615543288818
225	0x3f8bbf92819b3c3d	0.013548988895676678
226	0x3f861f034747e139	0.010801339733902725
227	0xbf7043d7d9c53cb3	-0.003970950285590624
228	0xbfa0f04d6d71e6ee	-0.033083362207390596
229	0xbf9e8629cd2c1b02	-0.029808667323801614
230	0xbf975378ed1609c0	-0.022779359312616654
231	0xbf7dfa5eacfd9ef3	-0.007318849398735716
232	0xbfa2b690f9f2208a	-0.03654912043663312
233	0x3f8725f8125842de	0.011302888927305185
234	0x3f6468809eee6458	0.002491236889409037
235	0xbf6955b28cc23a86	-0.0030926215459382038
236	0x3f91aa3356f833f5	0.017250826056670793
237	0xbf9f7098e5073658	-0.030702961901445697
238	0xbf222d6e015b5b33	-0.0001386830123723759
239	0xbf9237c7b823a14a	-0.01779090939899789
240	0x3f8a01fb24ae2b4a	0.01269909101190127
241	0x3f7fdd97199f895a	0.0077796842906273315
242	0x3f3a91f0c31e1ac0	0.00040542724593032806
243	0x3fa0a645103f158f	0.03251853774376478
244	0xbf8b76f898747d45	-0.013410513069685446
245	0xbfa59831df54e2ee	-0.04217677928176565
246	0x3f9f585b2b5090db	0.03061048938629161
247	0xbf91eb24b746c467	-0.0174985634673174
248	0xbf4db6b5806708cd	-0.0009067903745789918
249	0x3f756e6e6d1cd916	0.005232268669536097
250	0xbf84e9c3cb5afc05	-0.01021149601308303
251	0x3fa0ee0672563662	0.03306598802292339
252	0x3f9c11c7d39e28a8	0.027411577502370804
253	0x3f7a5f197c9c320a	0.006438350255632228
254	0xbf698729040d3034	-0.0031162072267872046
255	0xbfa29c2f8a1a8d15	-0.03634785233341568
