results/movie_to_story/S1/layer8_correlations.npy (npy, 649016 bytes, 1 tensors)

array f8 [81111]
0	0xbf8b1bfd276b681f	-0.013236978307237078
1	0x3f5bf6ef5b54dd9c	0.0017068231075664025
2	0xbf86823707464d22	-0.010990552815917601
3	0xbf9ee7986e22c3be	-0.0301803414556081
4	0xbfaa684660cb01c4	-0.05157680446200488
5	0x3f91bf8af5562970	0.01733224031844699
6	0xbf86ea86bf32b6b5	-0.01118951102247521
7	0xbf4ec48bf050691c	-0.0009389575285496973
8	0x3f93bd314a1e14b5	0.019276399754308133
9	0xbf90a40a1f290496	-0.01625076117693832
10	0xbf9a7b882b78759e	-0.025861861851912964
11	0xbf8682da5d08ee04	-0.010991769756507182
12	0xbfa6283b126688d3	-0.043275686260373945
13	0xbface0cafc5c3fd3	-0.056402533822733546
14	0x3f6743a4023db6a0	0.002839870767209998
15	0x3f90c558468691d2	0.016377810768647035
16	0xbf936b253d2d879b	-0.01896341501140562
17	0x3f81dc7595ebd9a8	0.008721274030432394
18	0x3f5e8731f55b10e4	0.0018632877230838002
19	0xbf8a7b122b62ff0b	-0.012930051755005964
20	0x3f92dd6c201e63a2	0.018422784290666912
21	0x3f748e526e759292	0.005018541334128062
22	0x3f81176557475a1a	0.008345405317340005
23	0x3f7337be06475d4e	0.004691831858927143
24	0x3f6182b652db1166	0.0021375237473383766
25	0xbf7f6cfe123d3f51	-0.007672302690323666
26	0x3f9446e875a15e02	0.019801742724977707
27	0x3f71d1aa1806ebc5	0.004350342206119022
28	0x3f7e71b51ed0cc40	0.0074326586737241684
29	0x3f9081dcfd3f89b1	0.01612038894371332
30	0x3f839ddc724ce9e0	0.009578439939663619
31	0xbf99adcb468f2eb1	-0.025077034169767646
32	0xbf7aeb03dff8a8d4	-0.006571784149438115
33	0x3faa357f282f6a3d	0.0511893974832742
34	0x3f813e818107b820	0.008420001745403083
35	0x3fa4a91691ac1364	0.04035254028534643
36	0x3f71828f281b9b95	0.00427490158629142
37	0x3f1c2d4798598e00	0.00010748624307548721
38	0xbf98aba46c0b610a	-0.024092263311872343
39	0xbf92ba858e6dd2f0	-0.018289648836303962
40	0x3f8d902d44dbcea8	0.014435151733301524
41	0xbf97bea5825bc783	-0.02318819625992986
42	0x3f9182bc015a30d1	0.017100274641550343
43	0xbf95b4cae6b9794d	-0.021197481472307534
44	0x3f938c51b373615c	0.01908996255664995
45	0x3f8eb17583758c57	0.014986913751903126
46	0xbf8c5abe8ff456be	-0.013844956176892406
47	0x3f89e813060dd8b5	0.01264967787004099
48	0x3f8ec0cbecf416d8	0.015016167801614896
49	0xbf88c252e9662574	-0.01208939337517976
50	0x3f91b7db56f3dbb9	0.017302920515216622
51	0xbf5c622e74fd19d8	-0.001732392662192708
52	0x3f6a97a470d7dc02	0.003246136830735492
53	0xbf69bdd07d56cce8	-0.0031422683775531486
54	0xbf97de15b7857d3e	-0.023308123899707704
55	0xbf9ce78a94b8cd68	-0.028227010085357135
56	0xbfa2616ee71e882a	-0.035899606430817535
57	0x3f70d72c341c9c80	0.004111454649126434
58	0x3f83f970fad8c60c	0.00975311532519909
59	0xbf879829123fdbaf	-0.011520691747120752
60	0x3f8b2e8859f02a1c	0.013272347683615009
61	0xbf642383fa722780	-0.0024583413792855224
62	0x3f608b86f5963d08	0.002019656746319879
63	0x3f8a06a702fa6e98	0.012708000925435045
64	0x3f4a5faa8f7b3910	0.0008048613371672026
65	0x3f719a38dbf23686	0.004297468286620925
66	0xbf71a348a965ba76	-0.0043061102245319696
67	0x3f9508d74194806a	0.020541537645044995
68	0xbf851f5ccfdf9762	-0.010313725560944401
69	0x3f98553df0200e3d	0.023762672215538173
70	0x3f801d873cb10d3d	0.007868820705090424
71	0xbfa0b7b03311b2b4	-0.03265143035318854
72	0x3f91ec67e713759e	0.017503379324684702
73	0x3f24a1856083fa00	0.00015740159165740508
74	0x3f73581c1a74d646	0.004722699907963318
75	0x3f8fb28c857acedc	0.015477273772695303
76	0x3f873e961723f1b0	0.011349842625798384
77	0x3f9a8234dd6e5392	0.02588732339389172
78	0x3f9d8f4dac4d764e	0.028866971627726827
79	0xbf3386f69188af40	-0.0002979614232880741
80	0x3f71a9a04c858f35	0.004312158744457941
81	0xbf9118eb7f20723c	-0.01669662440700591
82	0x3f82bf4c1809b686	0.009153933032588723
83	0x3f72eba7457d9344	0.0046192678490555895
84	0xbf81703fc5e8016a	-0.00851487944328318
85	0x3f80aed61b5f6942	0.008145973883007532
86	0xbfa11abf2bf4cec4	-0.03340718661857303
87	0xbf9458c5af444292	-0.019869889089991384
88	0xbf7c560298466d3d	-0.006917963157685944
89	0xbf989aee84cfe281	-0.024028517585949153
90	0x3f71edbca685af3a	0.004377114215781403
91	0x3f93bb99d4a44097	0.019270328143705297
92	0xbfa1932c38126ed1	-0.03432596382591913
93	0x3f809cb36d3491d2	0.008111383218939592
94	0xbf84f0f554dd0dae	-0.01022521653397387
95	0x3f9855b8e75f3e34	0.02376450454886321
96	0x3f8ae0a3cd7174b5	0.013123779017570983
97	0xbf8062f372f7ce03	-0.008001234003109486
98	0x3fa0258b9cac4020	0.0315364483595888
99	0x3f5f2028737ee2e3	0.0018997569113549599
100	0x3f7f23dd1cb8987d	0.0076025616831768535
101	0xbf95892bdceb6377	-0.021031079634528518
102	0x3f96b406ff1a395b	0.022171124763695853
103	0x3f953aea1064063a	0.020732552767191083
104	0x3f8177299c571e59	0.008528065761210945
105	0xbfa201a73934760f	-0.035168863041899916
106	0xbf8fb4eebe6a7c46	-0.015481820283922098
107	0xbfa6483bef98e9f5	-0.04351985263606998
108	0xbfa4943599594b46	-0.040193247765862014
109	0x3f95fee2cce817fb	0.021480125195033378
110	0x3f6b968a3f5914b0	0.0033676815171782212
111	0x3f9268bed9f012f0	0.01797769742190075
112	0x3f9491e3093b93c1	0.020087764204521855
113	0x3f8ff65f703fa5a0	0.015606637585693417
114	0x3fa3b52c056e3e82	0.03849160734455116
115	0x3fa34786136ae637	0.03765505778342198
116	0xbf7f67925403acc5	-0.007667132944543191
117	0xbf8672014f8b699b	-0.010959635009773197
118	0x3f931ceb6e248036	0.01866500720746008
119	0x3f716a407a517a35	0.004251720301083274
120	0x3f6e3cc576067023	0.0036910874043325644
121	0x3fa0bc134ed1d211	0.03268490159181082
122	0xbf6df6785b4c8c4b	-0.003657565185123645
123	0x3f825781d78735d8	0.008955969228646873
124	0xbf937aca9e3b0fea	-0.019023099811207013
125	0xbf73fb4be267e70e	-0.004878326819829372
126	0xbfa4cd1058b48b55	-0.0406270130427148
127	0x3f9cd51ba1fb30c2	0.028156692277477864
128	0xbf87ce2968af76ba	-0.011623691088910138
129	0xbfa6b57223573fe3	-0.044353071989121216
130	0x3f9d48edc2780900	0.028598513597906994
131	0xbf8dec8fb34ba755	-0.014611361178555585
132	0x3f74e0e34bca7886	0.005097282290675525
133	0x3f89225b32823a22	0.012272560576346573
134	0x3f753eed7aec33e1	0.005186965615178147
135	0x3fa4e4c858b9314a	0.040807972746366675
136	0x3fa39a159601bb92	0.038284945069668855
137	0xbf944d2a81c21774	-0.019825615091142848
138	0xbf9fb53a90ae602a	-0.03096477039397897
139	0x3f891e5680db6dde	0.012264896209152217
140	0xbf86760ba9b7655d	-0.010967341534455494
141	0xbf87688dc77a5897	-0.011429889345248063
142	0x3f81741624afec5a	0.008522198671917437
143	0xbf8275c386e40817	-0.009013679079092935
144	0xbf9087e4d5806d97	-0.016143394023044513
145	0x3fa323fd2c3a58f0	0.03738394894496533
146	0x3fac88ac1a050e85	0.05573022668479858
147	0xbf921a8b04e34ea8	-0.017679378674826524
148	0xbf88318c4aa92a6b	-0.011813255337206749
149	0x3f7e62b4b5797e1e	0.007418352026064249
150	0x3f9c0bf683278e96	0.027389384989773356
151	0xbf946bdadb0bece2	-0.01994268381075138
152	0x3f79163dc1c4c0fa	0.006124726522372942
153	0x3f904abfc0b67016	0.01591014493679673
154	0x3f98d596609ac9b9	0.02425227131488736
155	0xbf8d911b457f5628	-0.01443692499007472
156	0xbf77dc82e80b9ca6	-0.005825530389052569
157	0x3f5eb5b5d33924a0	0.0018743777881289683
158	0xbf772fbbf619be6d	-0.005660757278391421
159	0xbf9aac3f73a7b53a	-0.026047698434856083
160	0xbf93536d4fb2d5d6	-0.018872936238684655
161	0xbf92fa78a279efea	-0.01853359691311588
162	0xbf992ed9340ee4ff	-0.024592775156382803
163	0xbf669ba18c62a638	-0.002759757541828358
164	0x3f848bfb34f4986e	0.01003261809689723
165	0x3f7edfda487b1918	0.007537701290578867
166	0x3f87d94f85b870ad	0.011644955890965336
167	0xbfa3a498e6bc96d3	-0.03836515251741237
168	0x3f960b86d57ec63d	0.02152834585257878
169	0x3f8c6fc83e407a13	0.01388508262612923
170	0x3f797fe1372a6fda	0.006225471256268345
171	0xbf9632c7b00215bd	-0.0216780854393812
172	0x3f9bf279ea3c263d	0.027292160913054742
173	0xbf2ec2b2e9ce6c9a	-0.00023468431473081393
174	0xbf705cdb4c133ce6	-0.003994804982723843
175	0xbf9dad387b0a9dee	-0.02898109675393628
176	0xbfa174ee20f6319c	-0.03409523155559954
177	0x3f7a38587e53a3de	0.006401391675560723
178	0x3f7ddb920a9c830a	0.007289476847092366
179	0x3f9844522f8b4527	0.02369812407670682
180	0x3f84f7dcdfd3d910	0.01023838575427452
181	0x3fa32ae7095f7c74	0.037436694997944026
182	0xbf91793f6297325a	-0.017064085381024753
183	0xbf94f29f84492812	-0.02045678372295618
184	0xbf98dbffaf406a73	-0.024276728698263427
185	0xbf8c9232e9a5ab52	-0.013950727229447377
186	0xbf9b2881b8ac2030	-0.026521708389765475
187	0xbf76e90260b2e74b	-0.005593308723456601
188	0x3f936ff8a648390e	0.01898182406335374
189	0xbf7c1c03875754b6	-0.006862653526203013
190	0xbf79264e1b854bc2	-0.006140046222145425
191	0xbf95b6d647502c8a	-0.02120528040181261
192	0xbf9678ca29c4fc2a	-0.021945151137739462
193	0xbf9200376e8a2b4d	-0.017578950998124388
194	0x3efe49cd91273400	2.8885167077597612e-05
195	0xbf95b1fe0ca44798	-0.021186799546803664
196	0xbf9e4b589ec7cc13	-0.029584297839345974
197	0x3f7e11ef4dd1ca4d	0.007341322690182906
198	0xbf96fe03d9c04033	-0.022453365483727516
199	0xbf8ebd579c3ea216	-0.01500957913943161
200	0xbf93cfd182d208b9	-0.019347451791426027
201	0xbf9f985629e90530	-0.030854555423734442
202	0xbf9bc81d32125ec3	-0.02713056200135956
203	0x3f80c6408f046d0b	0.008190636028806006
204	0xbf72cc76c8de6776	-0.004589523317827351
205	0xbf959b47c71d1412	-0.021100160148552823
206	0x3f91d01afcadbeb6	0.01739542166927662
207	0x3f922a5baef82d98	0.017739708475387056
208	0x3fac753531901a56	0.05558172445312397
209	0xbfa46bb98ea03451	-0.03988437524831368
210	0xbf99b588cf244be5	-0.025106561320239158
211	0xbf8d8e863bc22400	-0.014431999872856593
212	0xbf850054434acc18	-0.010254534057230244
213	0xbf9373342812f5c0	-0.018994154878546388
214	0xbf91a1304e3e9ffe	-0.01721644856993975
215	0x3f7bc3b552e7b572	0.006778438850671408
216	0xbf9542a6412c151e	-0.020762059905810586
217	0xbfa801ff1b0ed472	-0.04689023213669764
218	0x3f90dcd609be6d86	0.016467422814100206
219	0x3f994af080c0e017	0.024699933870778148
220	0x3fa688e49d0bb123	0.0440131608682768
221	0x3f721d9cf7ec636e	0.004422772558222527
222	0xbf355586d018d19a	-0.0003255323536877297
223	0x3f903e2feb04a1d0	0.01586222526489839
224	0x3f9d0a2bd02479d3	0.02835911233807471
225	0x3f9e19167157b6b2	0.02939257685459635
226	0x3f77dec1decf7e6d	0.005827672296589631
227	0x3f8299832a768383	0.009081864102712838
228	0x3f79b5677d99465e	0.006276516208872344
229	0xbf8a80b181ae7c88	-0.012940775651996597
230	0xbf95ef0a52505300	-0.02141967894938812
231	0xbf77ef3fb2199cbf	-0.005843399821606698
232	0xbfa40474b9022958	-0.03909649618533945
233	0x3f894f961b732f3f	0.012358830177980116
234	0x3fa501c04c90b7f5	0.04102898535380454
235	0xbf41703649b128a0	-0.0005321755483092168
236	0xbf28a3d40f62329a	-0.000187987934343066
237	0xbf945940eaf29760	-0.019871725406708562
238	0x3f87da8a5477a6c2	0.011647301390400048
239	0xbf8fe026a09656ea	-0.01556425263951718
240	0x3f8fe2ef9f145f88	0.015569564859603494
241	0x3f8b07728b8b6043	0.01319779861789539
242	0xbf105b8c78d7fd66	-6.239933846784659e-05
243	0x3f8a7970ef1b627d	0.01292694310852593
244	0xbf863d713440d1c4	-0.010859379202977311
245	0xbfa2f9a9deb4116b	-0.03706103175685168
246	0xbfa4751d721ace2e	-0.03995601671104186
247	0xbf8d4dd8d2c3252b	-0.014308637554125333
248	0xbf9184686089cb9f	-0.017106657879093153
249	0x3f88ed489fde99f5	0.012171332720595432
250	0x3f862f55f4c496b6	0.010832473308777107
251	0x3f9f28fd356cace6	0.030429798494122993
252	0x3f9bb933992d213e	0.02707367536939497
253	0xbf7b346674211c9d	-0.006641769608967921
254	0x3f79ad68e41290c2	0.006268892030821318
255	0xbfa302de59b1909a	-0.037131260346343356
