results/story_to_movie/S1/old/layer8_correlations_noScaler.npy (npy, 324572 bytes, 1 tensors)

array f4 [81111]
000000 9c cf 0e 3d 1e 2a 15 3d 65 cf a2 bc 84 19 80 3b
       0.03486596 0.03641712 -0.019874284 0.0039092917
000010 37 84 eb bb 7b b1 6f bb 2e 34 96 3b 09 e6 84 3b
       -0.007187392 -0.0036574292 0.004583857 0.0040557426
000020 61 26 26 bc 97 e5 03 3d a5 f9 5c 3d 86 62 7f 3c
       -0.010140986 0.032201376 0.053949017 0.015587455
000030 27 20 e9 3a 3f 91 cd 3c 9b 84 f2 3c 54 6b 62 3c
       0.0017786071 0.025093673 0.029604247 0.013819534
000040 c6 c8 a9 3c e4 aa ae bc 46 13 de bc 47 2c ce bb
       0.020725619 -0.021321721 -0.0271088 -0.0062918994
000050 a9 4a 00 bd 54 84 f4 bb a7 d0 67 b9 b2 19 80 3c
       -0.0313212 -0.007462064 -0.00022107606 0.015637252
000060 b6 8d 55 3c dc 35 42 3c c5 aa ac 3a c2 ba 0e 3c
       0.013034275 0.011853661 0.0013173452 0.008711519
000070 48 44 14 bc ca a4 f6 bb 62 94 98 3c 51 03 c7 3c
       -0.009049483 -0.0075269686 0.018625442 0.024293574
000080 5f 17 66 3c 16 f8 e8 bb 26 e1 1a bb 6a c4 e4 bb
       0.014043658 -0.0071096523 -0.0023632734 -0.006981422
000090 f5 76 37 3c 7b 9f ce 3c f1 af a7 bb fe 29 a2 bc
       0.011197795 0.02522253 -0.0051174094 -0.019795414
0000a0 49 43 fa 3a ab 20 19 3d 0a 9b 29 3c 5b 4c bc bc
       0.0019093539 0.03738467 0.010351906 -0.022985628
0000b0 ce df fa 3c a2 b8 3b 3c be 83 53 3c f4 d6 b7 3c
       0.030624297 0.011457594 0.012909828 0.022441365
0000c0 26 ac f7 bc e9 4f 7f 3c 55 46 ce 3b 3c 11 f4 bb
       -0.030233454 0.015583017 0.0062950053 -0.0074483436
0000d0 6f 2b ae bc 95 33 23 bc 6a 21 b3 3c 30 fa 9f 3c
       -0.021260945 -0.009961029 0.021866519 0.019528478
0000e0 1c e4 a6 bc 84 95 de 3c be ab 68 3c 3b 47 ad bc
       -0.020372443 0.027170904 0.014201103 -0.02115213
0000f0 95 ae 8a 3a 91 48 bf 3c 6f a7 eb bc ef 0f a7 3c
       0.0010580594 0.023350032 -0.028766362 0.02039334
000100 7a 39 d5 bb 9e 4f 3c 3b 2e 2d 58 3b 3b 70 6b bc
       -0.006507096 0.002873398 0.0032985914 -0.01437002
000110 fe e0 5a 3c f5 53 07 bc 31 dd 78 3c e2 76 96 bb
       0.013359306 -0.008259763 0.015189455 -0.0045918087
000120 75 30 de bc af f6 81 bb 59 19 3e 3b 01 13 9b 3c
       -0.027122715 -0.0039661746 0.0029006808 0.01892996
000130 ec a4 31 3c 92 77 7c 3c b1 96 06 bd b2 5c 79 bc
       0.010842543 0.015409367 -0.032858554 -0.015219854
000140 d0 0f 61 bc 4a 6e 00 bc b4 2f 5b bb c5 4d 6e 39
       -0.01373668 -0.007838795 -0.0033445181 0.0002272642
000150 d2 89 99 3c 45 7d 3f 3c 9b 5f 68 3b 02 74 67 bc
       0.018742476 0.011687581 0.0035457376 -0.0141267795
000160 74 ff e6 3c 32 14 02 bc 54 15 1d bb 1f 73 88 3a
       0.028197981 -0.007939385 -0.0023969011 0.0010410285
000170 f2 fb af 3c 3e fb 39 bb 1e 7f 08 bc 62 b0 5a bc
       0.021482442 -0.0028378512 -0.008331088 -0.013347717
000180 da 32 4d 3c 8e 77 a1 3c 60 e7 3e bc 49 5e 13 3c
       0.012524331 0.019710328 -0.011651844 0.008994647
000190 fb ca ab bc da c0 fb bb 4c 07 89 ba 69 b9 a5 bb
       -0.020970812 -0.007682902 -0.0010454445 -0.005057503
0001a0 16 84 18 bc fc cf f7 ba b2 76 05 bc f1 d8 ed 39
       -0.0093088355 -0.0018906589 -0.008145975 0.00045365797
0001b0 30 9a 55 3d d4 c7 bb 3c 2c b1 a7 3c 0b 24 8e 3b
       0.052148998 0.022922434 0.020470224 0.0043377928
0001c0 e5 af e0 3c 92 c1 6e 3c 7b 88 2d 3a 62 62 22 3a
       0.027427623 0.014572518 0.00066197634 0.000619447
0001d0 f9 75 80 3b 5e 56 7a 3c 8a d8 e7 b9 55 79 41 3b
       0.0039203134 0.015279381 -0.00044221088 0.0029521782
0001e0 f9 a4 af bc 65 72 89 bc 7d 0b 15 bb 17 af 56 bc
       -0.02144097 -0.01677818 -0.0022742443 -0.013103268
0001f0 79 18 5d bc 00 ff b3 bb c2 e7 d0 bc 12 62 2f 3d
       -0.013494604 -0.005493045 -0.025501136 0.042818137
000200 41 50 19 3c 5f 16 cb 3c 0b f7 0a 3d 1b 06 34 bc
       0.009357513 0.02479094 0.033927005 -0.010987784
000210 76 7c 3a bb 27 a9 3a 3c 92 7a 9c 3c 1f ff b4 3b
       -0.0028455532 0.011392868 0.019101415 0.005523577
000220 cf 66 a1 39 b7 7a 0a bc e0 db b8 3b c5 c5 31 3c
       0.0003078491 -0.008452109 0.0056414455 0.010850375
000230 7b 33 23 bc 6f 9f 3a 3c 5f 8e be 3b a2 cd 03 bd
       -0.009961004 0.011390551 0.005815312 -0.03217853
000240 64 98 c3 3c 9e b0 fe bb 91 56 cd 3c 47 1a e9 bb
       0.023876376 -0.0077725193 0.025065692 -0.007113728
000250 87 55 b3 3c f9 62 2c 3d 0c bf 2c 3c 7c b1 d3 3a
       0.021891369 0.042086575 0.010543596 0.0016150917
000260 19 9e a6 bc ca 4c 71 bc ff 33 c6 3c ca 38 32 bc
       -0.020339059 -0.014727781 0.024194716 -0.010877797
000270 6f 5e b1 bb 8e 78 75 bb d0 64 bb bb eb fe f0 bb
       -0.0054128687 -0.003745589 -0.005718805 -0.0073546073
000280 d2 5c 6b 3b 5e 64 5f 3b 77 8e 09 3d 81 2f 71 bc
       0.003591348 0.0034086923 0.03358313 -0.0147207985
000290 22 51 06 bd d1 ff 35 3c e7 5c 0a 3c 16 49 24 bc
       -0.032792218 0.011108355 0.008445001 -0.010027191
0002a0 14 39 a8 3a 3a de af bc 5e db 84 bc a7 65 a8 bc
       0.0012834393 -0.02146827 -0.016217884 -0.020556284
0002b0 51 71 89 bc ac 3d e2 bb 94 01 32 bc d6 69 bd 3c
       -0.016777666 -0.0069043245 -0.010864634 0.023121756
0002c0 42 b1 3c bd d7 e0 91 3c 36 44 71 bc 3e d8 ae 3c
       -0.046067484 0.017807407 -0.014725735 0.021343347
0002d0 16 92 e7 bb ac 8a 49 3c c5 3b 56 bc 5b 36 41 bc
       -0.0070669753 0.012301128 -0.013075774 -0.0117927445
0002e0 5c 66 13 3d 21 0c 8b 3c 24 89 72 3c 8a b4 80 bb
       0.03598629 0.016973557 0.014803205 -0.003927772
0002f0 6f ad ee bb a7 de 8f bc 6a d1 a2 bc 4e fd cb bc
       -0.0072838585 -0.017562224 -0.019875247 -0.024901059
000300 56 89 4f bc 51 dc b5 bc 06 14 2c bd f1 9c ed bc
       -0.012667021 -0.022199782 -0.042011283 -0.0290055
000310 5f e6 ca bc eb 39 cb ba a1 9c a2 bc ea 64 ef 3a
       -0.024768053 -0.0015504932 -0.019850077 0.0018264328
000320 e2 9e a3 3a b7 29 7f bc c9 c1 8a bb e9 eb 14 3c
       0.0012483264 -0.01557391 -0.004234527 0.0090894485
000330 2c 1c 0c 3d db 1b 3c 3c b4 9c 81 3c bb e3 e1 3b
       0.034206554 0.011481251 0.015821792 0.0068936027
000340 59 b4 d6 3c 3f 92 d0 3c 00 5e b0 3c 7e 86 f1 ba
       0.026209043 0.02546036 0.021529198 -0.0018426923
000350 1f a4 82 ba e6 25 5e bc 80 bd b0 3b b1 e9 a7 ba
       -0.0009967125 -0.01355884 0.005393684 -0.0012810734
000360 0c 2b bc bc 50 88 5a 3c 15 b0 27 3b 45 c5 7f ba
       -0.022969745 0.0133381635 0.002558713 -0.00097568735
000370 15 44 8b 3c 6f c7 97 bc 27 e1 7e 3a 67 8d 0a 3c
       0.017000237 -0.018527715 0.00097228814 0.0084565645
000380 38 5c 0a 3c 72 4f 94 3c 8a 70 1f 3c 96 78 98 3b
       0.008444838 0.018104289 0.009731421 0.004653047
000390 fb bd b9 3b fa 17 b4 3b 56 a5 4b bc cb af ab bc
       0.0056683994 0.0054960223 -0.012429556 -0.020957848
0003a0 fa 4e 06 bc b7 3e 0b bc 99 6c 3c ba 3a 5a 21 bc
       -0.00819754 -0.008498839 -0.0007187813 -0.009848172
0003b0 9c f7 8d 3b a9 79 f3 3b 4a 45 a3 3b f6 af df 39
       0.004332496 0.0074302745 0.004982625 0.00042664976
0003c0 4b bf 40 bb 71 25 2f 3b 74 a7 c5 bc 3b 7a f0 bb
       -0.0029410894 0.0026725198 -0.0241277 -0.0073387898
0003d0 f9 a0 95 bc 72 ac 7c 3c a4 e0 9d bb df 04 66 3c
       -0.018265234 0.015421974 -0.004818039 0.014039247
0003e0 b6 10 5a 3c 2b d9 f2 3b 14 b3 b0 ba 56 ef 5c bc
       0.013309648 0.0074111423 -0.0013481104 -0.0134847965
0003f0 67 14 0c 3c 12 72 50 3c fe 3c 93 3b f9 b4 ff bb
       0.008549786 0.012722509 0.004493355 -0.007803556
